Project/Assets/ML-Agents/Examples/3DBall/TFModels/3DBall.onnx (onnx, 74869 bytes, 9 tensors)

network_body.observation_encoder.processors.0.normalizer.running_mean f4 [8]
00000000: 59e2 fb39 a111 eb3a bdbd a03d 691f 4340
00000010: 26f3 3cbe 2781 593b 7843 74be fe5e f93b
0.00048043093 0.0017934331 0.0784869 3.0487921 -0.18452129 0.0033188553 -0.23853862 0.007610201

network_body._body_endoder.seq_layers.0.weight f4 [128, 8]
00000000: 0413 c7bc fb4c 073f ee72 9a3e 3ae3 f5bd
00000010: b7d2 a7be 6370 053f 48e0 99be d2fd 4d3f
00000020: ebe3 ad3d 583e 983e 1e63 6b3e 80dc 0d3f
00000030: 5f6b 11bf 4b9d 4dbd cb50 e93e fdd6 8a3e
00000040: afdf 163f 3ea7 d3bd 0532 c03d a59d d5bb
00000050: 768c 6bbe 1c1b 46bd 5683 073e 7a1a fdbe
00000060: e8bb bb3e 6163 c9be 47fc da3e 4236 28bd
00000070: 979b 1abe 1e21 b23e 6b3b 97be a37d 22bf
00000080: dcc4 b2be 52c4 5b3e 197d c23e 5ddb 4abe
00000090: 956a 8d3d c857 1d3f 6e04 073f 5b87 e93c
000000a0: 547c a33e fee0 1bbc 28b4 273e 02ea 823f
000000b0: 987f 163e da62 8ebd c246 063f cab8 c53a
000000c0: 6306 f7be 0c5c b93c c713 5cbd 71a7 dfbe
000000d0: 38a9 2abe c48f 073f 0de7 90be 493c 22bd
000000e0: 6bd3 5e3e 7f31 e0be cff0 ddbc ee65 80be
000000f0: d898 a33e de08 bfbe 0f8c c1bd eba0 473e
00000100: abde 96be 0f5c e9be f380 f63d 2e66 03bd
00000110: db2a b0be 3255 da3e 5a37 b3bd f23e a2bd
00000120: 27fe 543e f378 0d3f fcc7 983c 6cb5 91be
00000130: 5951 22bd bf5e f7bc a569 6e3d 382a 193e
00000140: df23 373d a925 e03d f371 84be d520 7abe
00000150: e0f1 8fbe a476 61be cabb fabd 0a3f d53d
00000160: c425 6e3f 25d7 353d 875a 0ebf ab4f 62be
00000170: 76b2 2f3f 7928 e03e 6060 a8be abf7 31bd
00000180: 5a97 e43e 7993 423e 69cb 8fbe 5977 263f
00000190: 7399 f03e ff60 f13e 8e8d 1a3e c31e 3fbe
000001a0: 334b 7a3e 9088 11bf d93b fd3e c412 10bf
000001b0: 152a 3b3e 80e7 24be 911a 15bf d618 0c3e
000001c0: ee38 9cbc a6e4 0ebd f505 c93e 96eb ab3e
000001d0: ada0 05be a3ae 49be 145a 213f da95 06be
000001e0: e74c 2ebf b132 9e3e a094 993e c6fc cfbd
000001f0: a41d e6bd 5246 5a3e 2bb8 80be 4a9f 883e
00000200: 4372 783e 22b2 16bf 695b 83bd 68b6 3c3d
00000210: a9b1 923c 544a 68be 94f7 e43e f51b 84bf
00000220: a3c0 a43d 8d8a c83d 854d 2cbd 2eab 65be
00000230: ecd8 a33e 3399 983e 38a8 5f3e dee8 da3e
00000240: 3622 9c3e a213 0a3e b0d5 5e3e 4c96 98bd
00000250: 395b a8be 6e48 2abd b846 bdbb 7d64 33bf
00000260: 30cf dcbd 6a44 823e 3beb 0c3f 201d 943e
00000270: 71e3 48be c202 efbc ec2d 413e baba eabe
00000280: bf22 173e d3e8 bcbd 08d2 81be 8d0e f4be
00000290: f417 09bf b160 3fbf 1120 7bbe 94d8 403f
000002a0: fb20 c8be 464a 15bf 74e9 c0bd 5373 3b3e
000002b0: 71cb 5bbd 5bde c13e 64a5 fabe 3bce 9f3e
000002c0: d7b1 0f3f 2a51 e0be 664f af3d b8da 513e
000002d0: 1e29 2cbf d6c5 4ebd 0569 a63d 7901 ad3d
000002e0: bf6e e03e 0e2b 233f a54c 4fbe 663f 3abf
000002f0: 0f00 5fbd 3bf7 d33e ff2c 96bd 3379 f73e
00000300: 577e 963e 0e92 ab3e 1c4f d43e 56be df3e
00000310: bf30 99be c2f5 aa3e 2764 563e 81a9 8bbe
00000320: f7a8 1b3e 71ed 3b3e 9f5d 99bd 390b 44bf
00000330: d435 a0be b5e5 813d 7fc4 2cbf 3883 873e
00000340: f642 2f3f 1143 0bbf cbba e83e 73fd 293e
00000350: 9855 963d 781c 303e bc92 1e3f 5ae7 153f
00000360: 4217 d93e 1d5f 9d3c fe85 093e 17f7 1a3e
00000370: ff60 223d 650a 363e 8826 1c3f 72ea e9be
00000380: f6fc a0bd 41cd 723e ef1d 123e 7e05 78be
00000390: c686 143f 6a6f 3d3d 523e 8d3e f961 353e
000003a0: 9a25 133e cf4a 273f d88e 8d3d 1fbe 90bb
000003b0: 750d d43e 3561 1abf 17c0 513e ff8e 263e
000003c0: 5892 9dbd bbe0 25bf a610 abbd a689 9dbd
000003d0: d2b5 bcbe 3d6d 3d3d a6fb 8d3e d77f f0be
000003e0: c3eb d13e 15f3 bc3e 5e2d d33e 57d4 8ebe
000003f0: b3a7 e63e abb8 493c b5e3 143e 6c24 b13e
-0.02430106 0.5285184 0.3016581 -0.12006231 -0.3277795 0.52124614 -0.30053926 0.80465424
0.084907375 0.29735065 0.22987029 0.5541458 -0.5680446 -0.050198834 0.45569453 0.27117148
0.58935064 -0.10334633 0.093845405 -0.006519037 -0.230028 -0.048365697 0.13233694 -0.49434263
0.366668 -0.39333633 0.42770597 -0.04106737 -0.15098415 0.3479089 -0.2953752 -0.63472956
-0.34915817 0.21461609 0.37986067 -0.19810243 0.069050945 0.6146207 0.52741134 0.028506925
0.31930792 -0.009514092 0.16377318 1.0227664 0.1469711 -0.06952448 0.5245172 0.0015084979
-0.4824706 0.0226269 -0.0537298 -0.43682435 -0.16666114 0.52953744 -0.28301278 -0.039608274
0.21760337 -0.43787763 -0.027092366 -0.25077766 0.31952548 -0.37311453 -0.09450542 0.19494979
-0.29466757 -0.45578048 0.12036314 -0.032079868 -0.34407696 0.42643124 -0.08750792 -0.07922162
0.20800076 0.5526268 0.018650047 -0.28458726 -0.03962836 -0.030196546 0.05820622 0.14957511
0.044711944 0.10944683 -0.25868186 -0.24426587 -0.28114223 -0.22017914 -0.12242849 0.10412414
0.93026376 0.04439463 -0.55606884 -0.22100703 0.68631685 0.43780878 -0.32886028 -0.043449085
0.44646722 0.19001569 -0.28084877 0.6502586 0.46992072 0.47144315 0.15093061 -0.18664078
0.24442749 -0.56849 0.49459723 -0.56278634 0.18277772 -0.16103935 -0.5824366 0.13681349
-0.019070115 -0.034886025 0.39262357 0.33578175 -0.13049574 -0.19695525 0.63028073 -0.13143101
-0.68086094 0.3089805 0.29996204 -0.101556346 -0.11236122 0.21315888 -0.2514051 0.26684028
0.24262337 -0.5886556 -0.064139195 0.046072394 0.01790698 -0.22684604 0.44720137 -1.0321032
0.08044555 0.097920515 -0.042066116 -0.22428581 0.32001436 0.29804382 0.21841514 0.4275579
0.3049485 0.13484052 0.21761203 -0.07450542 -0.32882097 -0.04157298 -0.0057762526 -0.7007521
-0.107817054 0.2544282 0.55046433 0.2892847 -0.19618012 -0.02917612 0.18865174 -0.45845586
0.14759348 -0.09224095 -0.25355554 -0.4766735 -0.53552175 -0.74756914 -0.24523951 0.7533047
-0.39087662 -0.5831646 -0.09419528 0.18305711 -0.053660814 0.37864956 -0.48954308 0.3121203
0.5613074 -0.43811923 0.08560066 0.20493591 -0.6725024 -0.05048164 0.081255 0.084475465
0.43834493 0.6373757 -0.20244081 -0.7275299 -0.054443415 0.4139956 -0.07332801 0.48334655
0.29393265 0.33509868 0.41466606 0.43699902 -0.29920003 0.33390623 0.20936643 -0.2727776
0.15201174 0.18352295 -0.0748856 -0.76579624 -0.31291068 0.06342641 -0.6748733 0.264673
0.6846155 -0.5439921 0.45455012 0.1660059 0.073405445 0.1719836 0.6194265 0.5855614
0.42400557 0.019210393 0.1343002 0.1513332 0.039643284 0.17777403 0.60996294 -0.4568668
-0.078607485 0.2371111 0.14269231 -0.24220845 0.5801815 0.04624883 0.2758661 0.17713155
0.14369813 0.65348524 0.06912011 -0.0044171955 0.41416517 -0.60304576 0.20483433 0.16265486
-0.076939285 -0.64796036 -0.08352785 -0.0769227 -0.36857468 0.046246756 0.27731055 -0.46972534
0.41000184 0.36904207 0.4124555 -0.27896377 0.4504982 0.012312095 0.14539988 0.345981

network_body._body_endoder.seq_layers.0.bias f4 [128]
00000000: cfcb bb3c 8c38 c6bc 2ece d63b 4ca4 49bd
00000010: 1384 5ebd f16a ce3c 1908 dabd 442e 82bd
00000020: a5cb e0bd 44e3 11bd 098e 25bb 7c45 a3bc
00000030: 98ea c5ba a0a9 97bd b51f b5bd d0e8 7bba
00000040: 4003 363d 2cf3 89bd 4118 2fbc d38b 21bd
00000050: f7c7 05be 1c5c 94bc 8059 693b a96b 973c
00000060: e57f e1bc 06e2 65bd e195 903c e578 443d
00000070: fbbb e33b 1560 bf3c b2bc ddbc 31c2 1fbd
00000080: e082 debc 8a4e 713c d9c8 31bc 08d1 0cbd
00000090: 8956 1fbc b027 3dbb 9dd7 b6bc 42e8 30bc
000000a0: 8a27 cb3c dc5a 01bd 60ce b4bd e777 97bc
000000b0: 6fbd 14bc 3b0a 733d 0d61 cebc 783c 69bd
000000c0: 84de 95bd bd04 8fba 9834 863c 08df fcbc
000000d0: cfa5 0f3c 5315 52bd dda3 e63b 496a 053c
000000e0: 8849 84bd 9549 a2b8 6b12 38bd 559d 1bbd
000000f0: 965a 8f3c cd1c 5ebc 79e8 f4bc 4fd4 68bc
00000100: 5b44 5abc e36f 19bc f1c3 b7bb 7b40 2abd
00000110: c91a 23bd 725f cabd 8ae2 00bd 1a5d a6bd
00000120: 57a6 8dbd 592e dabb 61f3 263c 826b 42bd
00000130: c5b9 04bd 3f84 49bc 360c f1bc 29e4 de3a
00000140: a061 d9bb b847 ae3b fd4e 7dbd d28f dabc
00000150: 44aa 1ebd 3671 ddb8 4092 bbba 6fac 13bd
00000160: 58f8 393d 6633 22bc 0564 c4bd ac94 07bd
00000170: c00c a3bd eb16 a9bc 773c c5bc 94a7 50bc
00000180: e408 e83a 6a75 fe3b 0e18 943c d0cb 973c
00000190: bba3 85bd 2f60 0fbd 0440 0b3d 0596 14bc
000001a0: 67c5 81bc 6241 5bbc 6544 0abd ea9a e8bc
000001b0: a0f3 3dbc 71c0 1bbb f35f 333d 4deb 0bbe
000001c0: 6255 a63c 33ca 53bd d52d a1bc 1c27 41bc
000001d0: 617b 9bbc e0e5 7cbb 21df bc3b ea80 5e3b
000001e0: a140 3a3a 50d9 893d 4cda c9ba 6a75 d73b
000001f0: b880 24bc e7f2 1b3d 18d9 52bd 2130 e83c
0.022924332 -0.024196886 0.0065553403 -0.04922895 -0.054325175 0.025197478 -0.10646076 -0.06356481
-0.10976342 -0.035617128 -0.0025261662 -0.019930594 -0.0015099822 -0.074054 -0.08843938 -0.0009609582
0.044436693 -0.067358345 -0.010686935 -0.039439987 -0.13064562 -0.018110327 0.0035606325 0.018483954
-0.027526805 -0.056123756 0.017649593 0.047966857 0.0069498993 0.023361245 -0.027067516 -0.039003555
-0.027162015 0.014728198 -0.0108511085 -0.034379035 -0.009725221 -0.0028862767 -0.02231961 -0.010797562
0.024799127 -0.03158079 -0.088284254 -0.018489791 -0.009078368 0.05933593 -0.025192762 -0.056942433
-0.07317832 -0.0010911446 0.0163825 -0.030868068 0.008767559 -0.051289868 0.007038577 0.008143016
-0.064593375 -7.738468e-05 -0.04493944 -0.03799184 0.01749925 -0.013556671 -0.029896008 -0.014210775
-0.013321961 -0.009365055 -0.005608075 -0.0415654 -0.039820466 -0.09881486 -0.031466044 -0.081232265
-0.069164924 -0.006658357 0.010189862 -0.04746581 -0.032403726 -0.012299596 -0.029424768 0.0017005253
-0.0066339523 0.005318608 -0.061842907 -0.026679907 -0.038736597 -0.000105591884 -0.0014310554 -0.036053117
0.045402855 -0.00989995 -0.0958939 -0.03310077 -0.07961416 -0.020640811 -0.024076683 -0.012735266
0.0017702845 0.0077654617 0.018077876 0.018529803 -0.0652537 -0.035003837 0.033996597 -0.009068971
-0.0158412 -0.013382288 -0.033756632 -0.028394181 -0.011593729 -0.0023765827 0.043792676 -0.13663979
0.020304386 -0.051706504 -0.019675175 -0.01178911 -0.01897973 -0.0038589165 0.0057639037 0.003395135
0.00071049674 0.06730902 -0.001540014 0.006575276 -0.010040455 0.038073447 -0.051476568 0.028343262

network_body._body_endoder.seq_layers.2.weight f4 [128, 128]
00000000: a824 85bc 5f65 913d 812a f7bd 0873 6abc
00000010: f090 c73d 948e 593d 7480 cdbd 8b43 ccbd
00000020: c969 e73d bc13 1cbd 5657 d7bc 9c02 2cbe
00000030: cc94 84bc 1c02 51be ca27 113d 9403 143e
00000040: 3afe 91bd 44d9 53bd 14ce 7e3a d8c9 e73d
00000050: 2e6e ddbc 56b8 f5bc eee6 dc3c 19ad 733d
00000060: 4788 9a3d 25fb 35be 1d4b f83d b5de 4d3e
00000070: a496 b3bc 4f28 1cbc 06b6 6dbd 64c0 0f3d
00000080: 0491 bcbd 9317 643c 7c4e 313d cd08 763d
00000090: 7e6c 1f3b 30c3 33be bec6 b0bd 9320 3cbd
000000a0: 2243 c5bb 2c26 883d 691f 52be 0088 a93d
000000b0: abad 98bd 9c17 a4bb c61b 223d a4ed 18be
000000c0: 3fa3 253d ab07 92bd e29b 3ebd 8747 b7be
000000d0: bffb 75bd 3fc7 f83b c929 39bc cf34 e1bd
000000e0: 79f7 5abe 694b 72bc 3ca5 42bd cdcf 93bc
000000f0: deac 8e3c 2d13 1fbd 6cf9 03be 2f39 3cbd
00000100: add5 00be ab7a 623d a890 d23d 59fa a43d
00000110: cc75 f13d e383 3a3e ded5 a9bd 0b9c 91bc
00000120: 886a e43c 42e8 a03d e6a4 bbbd 53d6 17bd
00000130: 11e9 a03d aa3e 383d 2aa4 12be 3142 503e
00000140: 4180 22be 4939 00be 0ff3 2c3d 8802 ac3d
00000150: 0f09 66be d168 943d ea37 1bbd ce23 4b3d
00000160: 74aa 72be 1219 1bbe 8a40 a8bd ccd0 7abd
00000170: 9dec a7bc 4418 283d c721 103d 939f 39be
00000180: 0064 a8bd 4f8e 9c3d 9773 98bb f1b8 85bd
00000190: 3c1a efbd 9f0d 6cbc d0eb bdbd 98d3 1bbe
000001a0: 17b1 54bd e059 88bd 8ce6 3a3d a07d 903d
000001b0: 5ffb 73bd 2259 49bd 28b7 eb3c 54ca 1d3c
000001c0: fbee bebd c7f4 0ebe d69f 04bd cd75 05be
000001d0: 4edb 133e 8f16 033a d9e9 16bc d958 c8be
000001e0: 92d8 073d 4c9a d4bd f162 a5bd 2932 56bc
000001f0: 7343 733d 1df3 033e 6463 ae3c 84e9 a03c
00000200: 821b 1a3e fad6 fbbc 1640 dbbc 8d97 60bd
00000210: 0360 fbbd 8607 173d 1294 1bbd 0e77 c33d
00000220: 76db 7a3d d84b 973d 7a69 ff3d d91b f1bc
00000230: a8d4 403e d1c4 debc d33c ff3d 2eca bbbd
00000240: 0d21 1dbe ba73 4d3e 8cbd 4b3e 2601 f7bd
00000250: 7208 773d fe48 9cbd b507 30be bc1b df3d
00000260: 0aab d93d 5cea dcbd 26f7 3dbc 7a9e 403c
00000270: 64a6 f3bc 7b52 b03d 2e1a dbbd 72f0 463d
00000280: 7693 d2bc ce27 5dbd 67df 6a3d 5637 673d
00000290: dcb4 f73d 53f8 b63d 15a8 1b3d 14fb aebc
000002a0: 1199 053e 7692 2d3c 20a1 2a3e 83d4 4b3c
000002b0: c5a7 873b c767 a4bd c623 713d cb70 993c
000002c0: f61e 45be 3883 8b3d 103f 26bc 683d 78bc
000002d0: b47a e93c 4b46 0e3e 881a a9bd 1c69 213e
000002e0: c3d6 173b fe78 dbbc a3a5 ca3d 1bf4 423d
000002f0: 2bca 82bd 8ca2 f43c 7425 59bd 1429 d43d
00000300: d616 f13d 0ca0 94bb 502d 03be 74b5 b43d
00000310: 772a 9dbc 0d0b 1abd d749 f23c fc68 37be
00000320: 5671 aebb e136 01be c4e1 77bd 7e5d 6e3e
00000330: 3c1c 4fbd db82 203e 17a7 46bd 947b 853d
00000340: 81bf 16be d737 a2be 98f8 87bd 82fb b6bd
00000350: 0067 3c3d acfb e73c 4b56 e0bb ae85 8ebe
00000360: 85c2 85bb 6d6d ebbc d904 b83d 4a23 e0bd
00000370: dbf1 f7bd fce0 e83c 8bdf a7bd 9050 00bc
00000380: 730d 203d bd95 0ebe c997 cdbd 8163 413d
00000390: e4e4 6ebd 377a 22be ea20 6e3d f526 323d
000003a0: c932 f53d 54fb c63d 613e 343d 3c08 603d
000003b0: 7108 0d3e 7d8e ee3d 337f 5a3d 722e 2d3d
000003c0: bca9 23bd 06d3 a5bd 5a8e 053e 5400 4ebe
000003d0: caa9 f13c 6471 bfbd 1fc2 2dbd 4e59 a23d
000003e0: 43bf 5dbd 627c f03c 6a17 d83d ae46 fdbb
000003f0: 56df fdbd 88cc 5fbc 8eef c9bc 10cc c03d
-0.01625283 0.07099413 -0.12068654 -0.014309652 0.097444415 0.05311449 -0.10034266 -0.0997382
0.11299474 -0.038104758 -0.026286762 -0.1679787 -0.016184233 -0.20410961 0.035438336 0.1445449
-0.07128568 -0.051720873 0.0009720039 0.113177955 -0.027030077 -0.029995125 0.026965585 0.05949125
0.07545524 -0.17771585 0.12123702 0.20104487 -0.021922417 -0.009531095 -0.05803492 0.035095587
-0.09207347 0.013921636 0.04328774 0.060066987 0.002432614 -0.17554927 -0.08631657 -0.045929503
-0.0060199657 0.06647906 -0.20519795 0.08277893 -0.074549995 -0.0050076973 0.039577268 -0.14934403
0.040438887 -0.07130369 -0.04653538 -0.3579676 -0.060054537 0.0075921114 -0.011301466 -0.109964006
-0.21383466 -0.014788487 -0.04752086 -0.018043423 0.017416414 -0.038836647 -0.12888116 -0.045952972
-0.12581511 0.055292767 0.10281497 0.080555625 0.11790046 0.18214373 -0.08292745 -0.017774602
0.02788283 0.078568 -0.09162311 -0.03706963 0.07856954 0.044981636 -0.14320436 0.2033775
-0.15869237 -0.12521853 0.042223986 0.0839892 -0.22464393 0.07246555 -0.03789512 0.049594693
-0.23697835 -0.15146282 -0.08215435 -0.06123428 -0.020498568 0.041038767 0.035188463 -0.18127279
-0.082221985 0.07644331 -0.0046524513 -0.065294154 -0.11674926 -0.014407544 -0.09273493 -0.15217435
-0.0519267 -0.06657767 0.045630023 0.07055211 -0.059565898 -0.04915727 0.02877386 0.009630758
-0.09322926 -0.13960563 -0.032378994 -0.13033219 0.14439127 0.0005000615 -0.009211027 -0.39130285
0.033165522 -0.10380992 -0.08075512 -0.013073483 0.059390496 0.12885709 0.021287628 0.019642599
0.15049556 -0.030742157 -0.026763957 -0.05483203 -0.12274172 0.03687241 -0.037983008 0.09544192
0.06124445 0.07387513 0.1247129 -0.029432224 0.18831122 -0.027193459 0.12462773 -0.09169422
-0.15344639 0.20063677 0.19896525 -0.12060766 0.06031079 -0.0763111 -0.1719044 0.10893962
0.10628326 -0.10786888 -0.011594569 0.011756534 -0.029742427 0.08609482 -0.10698353 0.04856915
-0.02570508 -0.05399304 0.05734196 0.056449257 0.12095043 0.08934083 0.038002092 -0.021359958
0.13046671 0.010594001 0.16663027 0.012440803 0.0041398727 -0.080276065 0.058872007 0.018730542
-0.19250092 0.06812137 -0.010146871 -0.015151359 0.028500892 0.13894002 -0.082570136 0.15762752
0.002316878 -0.026791092 0.09894874 0.04759608 -0.06386217 0.029862665 -0.053014234 0.103593975
0.11771934 -0.0045356806 -0.12810254 0.08823672 -0.019185288 -0.037608195 0.029576225 -0.17911142
-0.0053235693 -0.12618591 -0.06051804 0.23277852 -0.050564036 0.15674917 -0.048499193 0.06517711
-0.1472149 -0.31683227 -0.06639212 -0.0893469 0.045996666 0.028318249 -0.0068462244 -0.27836365
-0.0040820264 -0.028738702 0.089852996 -0.10944231 -0.12106677 0.028427593 -0.08196934 -0.007831708
0.039075326 -0.13924308 -0.10038716 0.047214035 -0.058323756 -0.15866934 0.058136858 0.043494184
0.11972577 0.09715906 0.0440048 0.054695353 0.13772751 0.11648271 0.053343963 0.04228062
-0.039956793 -0.0809689 0.13042584 -0.20117313 0.029499907 -0.093477994 -0.042421456 0.0792719
-0.05413748 0.029356185 0.10551341 -0.007729373 -0.123961136 -0.013659604 -0.024650361 0.09413922

network_body._body_endoder.seq_layers.2.bias f4 [128]
00000000: ce3d ab3c ed4f 1a3c a54b 933c d15c 933d
00000010: 00d1 5fbd df3d 2ebd 73b1 c8bc cbfb 4b3d
00000020: 10e6 acbc 8117 a0bd c955 fd3c d911 4ebd
00000030: f637 da3b c0d7 c1bc a5a3 2d3c ad65 143c
00000040: f14e 97bc b2ad 833d a2f9 1fbb eec8 803d
00000050: 6135 13bd d4c4 4bbc 88cd 89bc 542f 693d
00000060: 5187 1ebc 4bf0 e6bc 432e a83b 526e dabc
00000070: 0b62 64bc 38e8 253d 476e 08bc 3e05 18bd
00000080: 3d71 933c 93c5 453d 7cce 0abd 38a3 0d3d
00000090: 091c 1ebd 8dee 67bc 4179 0b3d 27b7 433d
000000a0: 0e4d a23d 87e8 16bd 8e3f 61bd 5601 89bd
000000b0: 994d eb3c 11d6 bcbc 2df8 0d3d afae 35bc
000000c0: fbb0 dabc 7f41 b8bc 6d39 313d 6d95 0abd
000000d0: b24d 06bd aa9f 6dbd a7e5 d5bc 6ff2 a6bc
000000e0: b0cf 16bd 31d3 8c3c f6c0 303d 9afe a53c
000000f0: ddf2 b73a a624 eabc 0090 1ebd 70f5 c0bb
00000100: 0745 3cbd e0eb 07bd a27d 833d 1abf 2b3d
00000110: 4d5d 863c 5891 43bd 2708 9cbc 4ef4 81bc
00000120: a89b f8bc 6645 923c 283a 81bc 71f6 0cbd
00000130: 9ce0 84ba ed98 043d 65c9 04bd 0062 0fbd
00000140: 8f27 02bd e97b c73b b0c7 4f3c b06e ed3c
00000150: ee9b 153d 09dc 743d ac77 47bd cae1 1f3c
00000160: fa3c 7a3c 0b4a 653c 1431 8abc e2ed c73c
00000170: f101 05bd ba67 2b3d 846c a6bc a342 1cbd
00000180: 6ef2 a4bc 5e2e 16bd 02e5 18bc 6bd5 b4bc
00000190: 8a22 b13b 15be a1bc 0e16 8f3c 21d5 6b3d
000001a0: 33d2 693d 773d d6ba 5a8b 553b e14c 323c
000001b0: 7dd6 ceba 80fd ae3b 25bb ec3b 4d45 b7bc
000001c0: e227 333c 1182 20bd be5f e63c 6a04 4abc
000001d0: 1888 493d 04b6 9ebc fda6 42bc c0ac 1ebd
000001e0: 609f 573d c283 c43d d586 603d cd0f 4dbb
000001f0: 3138 293d 074f 75bc 2f9f adbb 812b 6a3d
0.020903494 0.00941847 0.017980406 0.07195438 -0.054642677 -0.042539474 -0.024498677 0.049800675
-0.021105796 -0.07816983 0.030924695 -0.05030999 0.006659503 -0.023662448 0.010598098 0.0090574445
-0.01847026 0.06429614 -0.0024410267 0.06288324 -0.035939578 -0.012437064 -0.016821638 0.0569299
-0.009675817 -0.028190752 0.005132468 -0.026663933 -0.013939391 0.040504664 -0.008327073 -0.037114374
0.017998332 0.048284125 -0.033888325 0.034579486 -0.038600955 -0.014155996 0.034051184 0.04778209
0.07924853 -0.03684285 -0.05499225 -0.06689708 0.028723525 -0.023051294 0.034660507 -0.011089011
-0.026695719 -0.022492168 0.043267656 -0.03383391 -0.03278894 -0.058013596 -0.026110483 -0.020379273
-0.03681916 0.017190548 0.043152772 0.020263005 0.0014034171 -0.028581928 -0.038711548 -0.0058886334
-0.045964267 -0.033183932 0.06420447 0.041930296 0.016401911 -0.047746032 -0.019046856 -0.015863564
-0.03034766 0.017855357 -0.015774801 -0.034414712 -0.001013774 0.032372404 -0.032418627 -0.03500557
-0.031776007 0.0060877693 0.012681887 0.028983444 0.03652566 0.059780154 -0.048698112 0.009758422
0.015273327 0.013994704 -0.016869105 0.024405424 -0.032472555 0.04184697 -0.020315416 -0.038149487
-0.02013513 -0.036665313 -0.0093319435 -0.022074422 0.0054057287 -0.019743958 0.017466571 0.057576302
0.057085227 -0.0016345222 0.003258428 0.010882587 -0.0015780475 0.005340278 0.007224458 -0.022371912
0.010934802 -0.03918654 0.028121825 -0.012330154 0.049202055 -0.019373901 -0.011880633 -0.038738966
0.052642226 0.09595443 0.054816086 -0.0031289936 0.041313354 -0.014972455 -0.005298517 0.057170395

action_model._continuous_distribution.log_sigma f4 [1, 2]
00000000: 3433 25be 5fc9 33be
-0.16132814 -0.17557286

action_model._continuous_distribution.mu.weight f4 [2, 128]
00000000: bc6f c63d 955e 223c dfb9 fdbc 4fab d3bd
00000010: f836 06b9 0015 5dbc 7d42 72bb f3b7 64bd
00000020: 3e9f ef3c 2dfc d3bb 1b21 6fbd 2933 c3bb
00000030: 9fa0 2cbd b3c5 f13c 5189 8dbc eeae 73bc
00000040: 4a76 5a3b 999e 87bd 9a96 f9ba 3e02 e8bd
00000050: 5759 d03a 0b1b 773d 301a b03c 5560 91bc
00000060: 0d90 58bc f3f8 063c 0c3b ae3d bc73 adbb
00000070: 11d4 003d 1233 b43b d0a4 333b 2be4 0ebc
00000080: b591 12bd 0c63 12bd 2d37 c43c df40 b4bc
00000090: 5868 75bb 14b3 a83b 3e16 88bd 3445 f13c
000000a0: 3ce9 923d 90e5 eabb bae4 a53b 4615 7a3b
000000b0: 1ee7 48bd 38ce 313b 6c1c 7ebd 71c7 d6bb
000000c0: 9987 b93c 7103 883c 2206 65bd 6b6f 9f3b
000000d0: 7996 bf3b 0f0c 073c b6df 213c 0224 2639
000000e0: b890 9a3b 6286 fc3b 9323 17bd d4d6 18bc
000000f0: 7270 d3bc c5e8 073d 5414 183c 36c8 da3b
00000100: 9ae0 e3ba f3a9 e53c 7a44 f8ba 5d1c 1abd
00000110: 0f71 863c f8cb 253c 22c6 debc 6032 a03a
00000120: f75d 97ba ca69 a6bc 8f4a 093c caf5 b63b
00000130: 7bc7 0abc 3958 56bd d3a1 a33c 3a38 bf3b
00000140: 0ff0 9d3c 6a4b 003d 9514 8e3d 072d 32bd
00000150: 56df 8abd f496 78bd 4332 5a3c ba7c 913d
00000160: 94d8 5f3c 1b4c b4bb 3941 323d d547 6dbd
00000170: d191 8a3a 948d f73c 08a5 d63b 3dc2 903c
00000180: ed32 583b 1849 d43b 26aa 393d 0b12 36bc
00000190: c1bb 26bc 8c44 4e3c 0cd7 673c 4d9e c73c
000001a0: 132a b5bd 37f0 7cbc 5f0b 253d 5f8c 893c
000001b0: 1d0b 553d 264d 13bc bb70 27bd 4510 47bc
000001c0: d1ac 093d 8676 343c 0f41 debc 6f86 a8bc
000001d0: 007d d43c f82a 0f3d 72ca 5d3d 5e28 963b
000001e0: ce4e bdbd 935c 4cbd 33c6 8fbd 8db7 d43c
000001f0: 80fc 093d bcde ca3c 3127 afbc 96c3 663c
00000200: cf7b 07bd 43e0 98bc d5a3 9b3b 8008 20bc
00000210: f302 b5ba 5967 dcba 6beb 183d 2106 1fbd
00000220: 815e c4bc 1b9c f439 4457 73bc 6b2e 1cbb
00000230: d911 083d 580e bf3c b303 e3bc 8006 04bd
00000240: 5dbb 99bb d378 67bd b4d8 a5bc 4f23 0a3d
00000250: 8282 253b d50f 7e3c aff2 06bd 8088 8ebd
00000260: caf1 273c 7a6f 8e3c 1744 fe3c cb92 913c
00000270: 68e3 4cbc 15ff 81bd 529e 09bd ade2 9b3b
00000280: 1a88 d7bc 9faa 843d 3194 a9bb 35d0 30bd
00000290: b1e6 c03b e5be 233d f4f6 2f3d ee6a 16bd
000002a0: 11b5 dcbd 9a33 52bb 5a41 9abb 3c4d 033b
000002b0: 5f0d 0e3d 4069 fd3c 4573 08bd 7247 403c
000002c0: 0939 e5bb ec49 f73b ee22 09bd 3d62 2d3b
000002d0: 8777 693c 59b2 cf3b 0d30 323c 2e20 4bbb
000002e0: 6354 103d dd8e efbc 8b06 86bc d2be 22bd
000002f0: 9bea bb3c a2a8 0abc 0fcb 343c d8da b2bb
00000300: 4aae b23b b107 a13c 1067 b0bd 044f 6fbd
00000310: 5ecc 14bd 99fa 323b 1529 aaba 5538 7a3c
00000320: 4407 b93c 8b72 01bd 0b98 2ebd ecfd 643c
00000330: da76 2d3d b934 a13d c015 7d3c 76d6 42bb
00000340: afb7 5b3b 3f15 d6bc 9885 863d f654 cc3d
00000350: 6482 dd3b dc63 33bd b065 ec3b 34c4 713d
00000360: 2843 0d3e a148 59bd d6b3 8f3c ce91 163d
00000370: 13fc 4b3b 6f92 cabd 9afa b43b 5ec1 d93b
00000380: b81a 0a3d 05d0 a43c 8fc2 9bbc d1f8 13bb
00000390: 6286 16bd 5601 eabc a3e9 51bd 096d bdbd
000003a0: 8a34 a3bc 5afb a73b 5c6f 70bd 7f41 c2bc
000003b0: b3ea 6b3d 4857 3a3c 5583 c73c 6d89 72bb
000003c0: ce6e ad3d c082 713a 4fc4 ccbb 700d babb
000003d0: 3c7a 9abd c8d2 023d 6025 563d cc7d 65ba
000003e0: 23da 7dbb 2d8f dabd 5ba8 8dbc e6f1 7ebc
000003f0: c993 3bbd fce0 08bd 0fae 993c 8edb e4bd
0.096892804 0.009910245 -0.03097242 -0.10335409 -0.00012799713 -0.013493776 -0.00369659 -0.05583949
0.029250737 -0.0064692707 -0.05838118 -0.0059570265 -0.042145368 0.029513216 -0.017277392 -0.014873249
0.0033334666 -0.06622047 -0.0019042075 -0.11328553 0.0015895766 0.060328525 0.021496862 -0.01774613
-0.013217938 0.008238065 0.08507356 -0.0052933376 0.031452242 0.005499252 0.0027411468 -0.008721392
-0.03578349 -0.03573899 0.023952091 -0.02200359 -0.0037446227 0.005148301 -0.06644867 0.029451944
0.07173392 -0.0071684793 0.0050626667 0.0038159653 -0.049048536 0.0027130973 -0.062038824 -0.006554537
0.022647666 0.016603203 -0.05591405 0.004865577 0.005846795 0.008242621 0.009879997 0.00015844408
0.004716959 0.0077064494 -0.03689916 -0.009328563 -0.025810454 0.03318097 0.00928219 0.006676699
-0.0017385662 0.02803514 -0.0018941306 -0.037624706 0.016411332 0.010119431 -0.027194086 0.0012222044
-0.001154839 -0.020314116 0.008379593 0.0055834996 -0.008470411 -0.05233023 0.019974625 0.00583556
0.019279508 0.03132192 0.069375195 -0.043499973 -0.06780879 -0.060690835 0.013317647 0.07103868
0.013662476 -0.0055022365 0.043519232 -0.057929832 0.0010572021 0.030218877 0.006550435 0.017670745
0.0032989339 0.00647844 0.04532828 -0.0111127 -0.0101766 0.012589585 0.014150392 0.024367476
-0.08845916 -0.015438131 0.040294047 0.016790567 0.05201255 -0.008990562 -0.040878993 -0.012149875
0.033612076 0.011014586 -0.027130632 -0.020571915 0.02593851 0.034953088 0.054148145 0.004582449
-0.092435464 -0.049892973 -0.070202254 0.02596643 0.03368807 0.024764411 -0.021380993 0.014084717
-0.033077057 -0.018661624 0.004749755 -0.009767652 -0.0013810083 -0.0016815468 0.037333887 -0.038824204
-0.023970844 0.00046655614 -0.014852349 -0.0023831378 0.033220146 0.02332227 -0.027711725 -0.03223276
-0.004691525 -0.05651171 -0.020244934 0.03372508 0.002525479 0.015506704 -0.032946285 -0.06959629
0.010250518 0.01738714 0.031038327 0.017770192 -0.01250539 -0.06347481 -0.03359825 0.0047572465
-0.026310015 0.06477856 -0.0051751365 -0.04316731 0.0058868756 0.039976973 0.042960122 -0.03672307
-0.10776723 -0.0032074214 -0.0047074975 0.002003505 0.03468072 0.030933976 -0.033313055 0.011735784
-0.0069953245 0.007546654 -0.033480577 0.002645626 0.014249689 0.0063383994 0.010875714 -0.0030994522
0.035236727 -0.029242927 -0.016360542 -0.03973276 0.022939017 -0.008463057 0.011034741 -0.005458217
0.005452906 0.019656988 -0.086134076 -0.058424965 -0.036327712 0.0027310012 -0.0012982214 0.01527222
0.022586472 -0.031603377 -0.04262547 0.013976555 0.042349674 0.07871384 0.01544708 -0.002972988
0.0033526232 -0.026133178 0.0656845 0.099771425 0.0067599285 -0.043796405 0.0072142705 0.059025005
0.1379515 -0.05304778 0.017541807 0.036760144 0.003112559 -0.09891211 0.005523038 0.0066453656
0.033716887 0.020118723 -0.019013671 -0.0022578726 -0.03674925 -0.02856509 -0.051248204 -0.092493124
-0.019922514 0.005126399 -0.05869995 -0.023712872 0.057596873 0.0113733485 0.024354616 -0.0037008182
0.084684 0.00092129037 -0.0062489877 -0.0056778714 -0.075428456 0.031939298 0.052281737 -0.0008754402
-0.0038734756 -0.1067184 -0.017292192 -0.015560603 -0.045795236 -0.033417687 0.018759755 -0.11174689

action_model._continuous_distribution.mu.bias f4 [2]
00000000: 039e 83bc efc1 84bc
-0.016066557 -0.016205756

onnx::Div_51 f4 [8]
00000000: e87d 383d fd95 433d bcd0 0b3f dd9d 2c3e
00000010: e560 133f ded5 db3e 3b6c 103f 717a e73e
0.04504195 0.04775046 0.5461538 0.16857095 0.57569724 0.42936605 0.56415147 0.45210603
