Assets/ML-Agents/practice/Models/results/RB001/RollerBall/RollerBall-80417.pt (torch, 444217 bytes, 36 tensors)

network_body._body_endoder.seq_layers.0.weight f4 [128, 8]
000000 1d 64 62 3f c6 b3 56 3f ce dd 81 be 8a 2a d2 3e
       0.8843401 0.8386806 -0.25364536 0.4104808
000010 3e c2 14 be 3c 7c b9 3e 2e 17 30 bf f2 b9 fe bd
       -0.14527223 0.36227596 -0.6878537 -0.1243781
000020 5b a8 31 3d 3d 14 85 3e 97 99 fc bd b1 fd 0f bf
       0.043373447 0.25992003 -0.123339824 -0.5624648
000030 ac 87 16 3e fe 32 49 be ed 20 9e be 74 f8 48 be
       0.14700192 -0.19648358 -0.30884495 -0.19626027
000040 5d 1b 5d bf 9f cf 88 be 44 18 1a be 2b e5 cd 3a
       -0.8636988 -0.26720902 -0.15048319 0.0015708556
000050 05 59 be be a4 16 22 3e 5c 1b f9 bd f0 ae 49 3f
       -0.37177292 0.15828949 -0.121634215 0.7878256
000060 51 6e d4 3d 77 9d 85 3e 0b b1 fd bd 23 14 82 be
       0.10372604 0.260967 -0.12387284 -0.25405988
000070 13 c0 04 bf 98 2d a2 bf e9 0e ab 3d 50 9c 9f 3e
       -0.5185558 -1.2670164 0.08352453 0.31173944
000080 e2 93 56 be 46 43 e7 be 9f cc 9d 3e af 0a b5 3d
       -0.2095485 -0.45168513 0.30820176 0.08839928
000090 47 63 55 bf b1 d4 e4 3e 4b 9a 55 bc 84 21 d7 3e
       -0.8335461 0.4469352 -0.013037275 0.42017758
0000a0 06 bf 42 3e 25 fe ab 3e 80 e2 d0 be 34 18 93 3e
       0.19018182 0.33592334 -0.40797806 0.28729403
0000b0 37 62 b8 3d 9d b6 ee 3e 0a 9b 53 be b7 e5 26 3e
       0.09003108 0.46623698 -0.20664611 0.16298567
0000c0 d9 39 db bc 7a 93 e6 3c 43 35 ec 3c b6 c0 d4 be
       -0.026760982 0.028146494 0.02883399 -0.41553277
0000d0 2a d3 01 3f 97 a2 a4 3e d0 41 1c 3e 94 2d 71 3d
       0.50712836 0.32155296 0.1525948 0.058881357
0000e0 91 42 85 3e 41 d2 16 3d 97 01 15 bf 6e 4b 85 3f
       0.2602735 0.036821608 -0.5820555 1.0413644
0000f0 b0 be 23 be e6 71 48 be 79 2b 4a 3c c4 a7 cc be
       -0.1599071 -0.19574699 0.012339466 -0.39971745
000100 e1 b8 3d be 6b b5 e6 bd 29 3c 9a be 06 8c b0 be
       -0.18527557 -0.112650715 -0.30124024 -0.3448183
000110 b0 d8 7e 3e 7f e6 fa 3e 91 f0 95 3a 5f 2c a6 3e
       0.24887347 0.4900398 0.0011439492 0.32455727
000120 2f 4a 37 3e c1 a1 36 3e b3 1b ca b9 da c1 af be
       0.17899393 0.17835142 -0.0003854908 -0.34327585
000130 06 53 3d bd ca 6c 9f 3d 4e 63 93 bd 42 d1 a0 be
       -0.046221755 0.07784422 -0.07196675 -0.3140965
000140 62 b3 87 be a7 ad 63 bd 9b 95 2c 3e bb 15 2c bd
       -0.26504046 -0.05558553 0.16853945 -0.04201291
000150 3b 14 2c 3f 51 41 81 3f b6 6e 1a 3f ad 18 93 3c
       0.6721837 1.0098058 0.6032518 0.017956102
000160 ec db 41 3f 26 e3 e6 3c db fa a2 bc c0 32 0c 3e
       0.757262 0.028184485 -0.019895008 0.13691235
000170 4a 0c 49 3d 85 a0 12 be 67 90 a9 bd fa 45 d1 be
       0.049083985 -0.14319046 -0.08279496 -0.408737
000180 de be 3d 3e 5d fd f3 3e db 3d c2 be 9f 06 54 bf
       0.18529841 0.47654238 -0.37937817 -0.82822603
000190 6c 5b 00 3f 22 4c 37 be 89 f7 b3 bd 31 11 e2 3e
       0.501395 -0.17900136 -0.08787448 0.4415374
0001a0 5c 46 4b be 9b 04 08 3e fc 69 b8 bd 93 fb 24 3b
       -0.19851059 0.13283007 -0.0900459 0.0025174364
0001b0 0a 14 89 bc 20 95 9a 3d 0d be e1 3e 55 57 f3 3e
       -0.016733188 0.075479746 0.4409031 0.47527567
0001c0 b0 85 b1 3d d1 6f 0b 3e 65 a6 b4 be ed 70 1d bf
       0.08668077 0.13616873 -0.352832 -0.61500436
0001d0 5b b6 1a 3e 4c ee b9 3d f2 d5 9c 3e a5 f0 26 3e
       0.15108626 0.09078655 0.30631977 0.16302736
0001e0 b8 12 45 3d 61 f1 be 3e 5b 84 12 3d c0 a3 6a 3e
       0.048113555 0.37293532 0.035770755 0.22914028
0001f0 a6 63 35 be 8a 04 0d bf 75 84 93 be 05 12 57 bf
       -0.17713794 -0.5508505 -0.28811994 -0.8401187
000200 12 21 14 3e 4e b6 9e 3e 08 8f 36 3f aa 1a fb 3e
       0.1446574 0.30998462 0.71312 0.4904378
000210 df 93 db 3d 7b 58 ee bd 6f 62 08 bd 6e b1 6d 3e
       0.107215635 -0.1163797 -0.033297 0.23212215
000220 a7 57 25 bb af d2 1a bf ce 26 48 3e 20 48 6d 3f
       -0.0025229247 -0.6047773 0.19546053 0.9268818
000230 00 ea 5a 3e fc 66 45 bf ae 60 ba 3d ad 37 36 3e
       0.21378326 -0.77110267 0.091004714 0.17794676
000240 00 36 1c bf 0d 17 29 be 8e 8f 86 3e 8e 38 26 3f
       -0.610199 -0.165127 0.262814 0.64930046
000250 22 cc 5c be ef e4 83 be 15 fc 35 bf ef a0 df 3e
       -0.21562245 -0.257606 -0.7108777 0.4367747
000260 f0 83 f1 3c 3d c3 72 be c4 a8 50 be c1 90 0a 3d
       0.029481858 -0.2370729 -0.20376879 0.033829454
000270 ee ff c5 be 93 35 c8 be be 96 ce bd 26 a2 f3 be
       -0.3867182 -0.39103374 -0.100873455 -0.47584647
000280 f4 27 42 bf a9 0a 0d 3e 06 ce e0 be 95 2b dd 3c
       -0.75842214 0.13773598 -0.43907183 0.02699832
000290 8f 35 c9 be 93 d6 0a 3d bb f5 65 be c0 3e ba 3e
       -0.39298674 0.03389604 -0.2245702 0.36376
0002a0 06 ac 6a 3e 87 b0 1c be e1 cd 74 3e f0 37 6e 3e
       0.22917184 -0.15301715 0.23906662 0.23263526
0002b0 ae d8 cb 3d 74 84 34 3f 46 3a 85 3e 5f 6b e9 3e
       0.09953438 0.7051461 0.26021022 0.4558973
0002c0 03 68 13 3e 16 0b 79 3e 02 c4 45 3f 4e a5 d0 be
       0.14395146 0.24320635 0.7725221 -0.40751117
0002d0 fb 5a 1b 3f 05 8c a8 be a8 de 47 3c 52 9c da 3c
       0.606857 -0.32919326 0.0121990815 0.026685867
0002e0 1c 5d 48 3e 10 5a ba be 6e 05 2b bf 08 6f e2 3e
       0.19566768 -0.36396837 -0.6680516 0.44225335
0002f0 24 e2 b1 3e b4 73 a7 bd 40 aa a1 3d b1 dd 00 3e
       0.34742844 -0.081763655 0.07893801 0.12584569
000300 65 5b 91 3e 19 82 0d bd 6f 89 f2 3e 91 08 c9 3d
       0.2839004 -0.0345479 0.4737048 0.09816087
000310 c0 0e fa 3e 53 65 69 bd 96 07 e3 bc 44 95 46 be
       0.48839378 -0.056981396 -0.027713578 -0.19392878
000320 17 6f 5b bd 8f 36 af be 22 af b6 be 89 02 82 bd
       -0.05357274 -0.34221312 -0.3568049 -0.0634814
000330 7f 9c 72 3f 3f f1 4e 3e 63 3c 97 be ff 93 a3 be
       0.94770044 0.20209216 -0.2953826 -0.3194885
000340 c8 53 79 bc 05 84 b8 bd 7d 2c d7 be 5a 53 73 3e
       -0.015217729 -0.09009556 -0.4202613 0.23762265
000350 e0 84 a2 be 76 02 95 3e 56 62 94 3d f3 a8 b4 3d
       -0.31742 0.2910344 0.072453186 0.08821287
000360 2c 04 5d 3e ec f6 80 3e ef 31 f9 3e 01 6f c3 3e
       0.21583623 0.25188386 0.4867091 0.38170627
000370 bd f5 07 be 96 36 cf be 6d 84 86 3e da b7 64 3f
       -0.13277335 -0.40471333 0.26272908 0.89343035
000380 7f 2c c4 3e 18 d2 98 3d fd f8 f9 3e a6 ef 50 be
       0.38315198 0.07461947 0.48822775 -0.20403919
000390 a2 57 61 3f f3 c2 39 3e 1f c1 87 3e ea 22 f8 be
       0.8802434 0.18140773 0.26514527 -0.48464137
0003a0 c1 3b 07 3e 1a 40 5a 3d 83 2d b7 be b4 29 81 bd
       0.13206388 0.05328379 -0.3577691 -0.06306782
0003b0 9e e1 b1 be 89 55 20 be 33 c4 45 3f a3 ef 50 3e
       -0.34742445 -0.15657629 0.772525 0.20403914
0003c0 87 3b 07 bf 06 bc 59 3a a2 e4 73 3e 88 89 dd 3e
       -0.52825207 0.0008305911 0.23817685 0.4326899
0003d0 bf 6d a0 be 07 5f 9c bc 5f b2 23 3e a4 6a 32 3f
       -0.3133373 -0.019088281 0.15986012 0.6969397
0003e0 ff a9 5c be e4 1f 52 be b4 62 83 be 8b 7f 91 3e
       -0.21549223 -0.20519978 -0.25661242 0.2841762
0003f0 ee 48 8e 3e 5e 85 43 bf b1 5e 8b be ee 55 43 be
       0.27790016 -0.7637538 -0.2722068 -0.19075748

network_body._body_endoder.seq_layers.0.bias f4 [128]
000000 3b 41 0b bd a3 5e 43 3c 2e df 6e bd 60 11 d8 bc
       -0.033997755 0.011924419 -0.05831831 -0.026375473
000010 6f 55 80 bd 19 d2 5f 3d bc dc 02 3d 51 6e f6 3a
       -0.06266295 0.054643724 0.03194879 0.0018801187
000020 4a 74 a8 3c b9 36 23 3d bb 42 96 3c 26 66 af ba
       0.020563263 0.03984711 0.018342366 -0.0013381883
000030 71 23 4a 3d 3d 50 ed 3c 07 46 a6 bb 86 9b 3d bd
       0.049350206 0.028968925 -0.005074266 -0.046290897
000040 db ca 25 3d 02 b9 5a 3c 5c 13 d2 3c 5e 6c 8a bd
       0.04047666 0.013349773 0.025643997 -0.06758951
000050 79 5e b5 3c ee 37 db 3c b0 c1 9f 3d 0e c4 d7 bc
       0.022139775 0.026760068 0.07800615 -0.026338603
000060 7a f0 2f 3d a4 4e e8 bb d9 aa 38 3d 2f 3b ed bb
       0.042953946 -0.007089453 0.045084808 -0.0072397212
000070 91 0d e2 3c d3 5b 54 3c 4e a8 ee 3c e6 d2 8f bd
       0.02759436 0.012961346 0.029132988 -0.070226476
000080 90 81 1a bd 52 39 9d bc ad 49 4c bd 0a c5 7b 3c
       -0.037721217 -0.019192372 -0.04987495 0.015366802
000090 c4 66 0f bd 9d c0 59 3d 3e 90 2e 3d d4 a5 33 3d
       -0.035010114 0.053162206 0.04261803 0.043859318
0000a0 fe 81 e4 3c 51 09 0b bb 0b 52 87 3d ed 58 01 3d
       0.027894016 -0.002121527 0.06607445 0.031578947
0000b0 b7 cf 18 bd 29 99 07 3d f7 f5 5d bd 35 61 6a bb
       -0.037307467 0.03310505 -0.05418965 -0.0035763506
0000c0 b4 5a c7 3d 10 58 fd 3c 76 34 9f bd 58 12 58 bd
       0.09734097 0.03092578 -0.07773678 -0.05275187
0000d0 13 21 b9 bc 65 30 05 3d dc 96 1d 3d 6c 18 41 3b
       -0.022598779 0.032516856 0.03847395 0.002946402
0000e0 19 5a df 3d ba 68 6d 3d 49 dd 0f bd ac e6 56 bd
       0.10905857 0.057961203 -0.035123143 -0.05246608
0000f0 bb 8c 2c bb 34 98 1b 3d 73 44 7d 3c 80 7c 81 3c
       -0.0026329 0.03798695 0.015458214 0.015806437
000100 17 e1 95 39 d4 67 9f 3d 0a 14 2b bb 48 7f ad 3c
       0.000285872 0.077834755 -0.0026104474 0.021178856
000110 b7 c7 c2 bd 28 ec f1 3c db 2d 98 3d a6 2c 87 3d
       -0.09510749 0.029531553 0.07430621 0.06600313
000120 43 50 27 3c 83 e1 7f bd 3b a5 ce 3d 44 8a 6d bd
       0.010212007 -0.062470924 0.10090109 -0.05799319
000130 3f 77 9e 3d 08 57 de bb be 35 db bc 20 9b 22 bd
       0.07737588 -0.0067852773 -0.026759025 -0.03969872
000140 56 cf 64 3b 9f be c0 bc 7d 23 67 bd 8b a0 1b 3d
       0.003491362 -0.023528395 -0.05643033 0.037994903
000150 bc 2f 27 3c 2f b9 0f 3d 31 06 d0 3d ab 00 2f 3d
       0.010204252 0.035088714 0.10157431 0.042725246
000160 1d 0b fe bb 91 b3 6c 3d a4 cf 05 3c 05 0b 93 bd
       -0.0077527897 0.057788435 0.008167181 -0.07179836
000170 2b 64 df 3c 6d 14 8a bd d7 6a ce bc e3 8e b2 bc
       0.027269443 -0.06742177 -0.02519743 -0.02179665
000180 f0 b5 97 bc bb ba 81 3c 03 b8 40 bc 2d cb 3c bc
       -0.018519372 0.01583611 -0.011762622 -0.01152305
000190 26 a0 63 3d f1 30 65 3d 7b 7f 02 bc 84 e6 8e bd
       0.05557265 0.055954877 -0.007964964 -0.06977561
0001a0 a4 c2 22 bd a8 d6 f4 3d dd 26 87 3c 32 4c cf 3b
       -0.039736405 0.11955005 0.016498024 0.006326222
0001b0 26 a6 6c 3d 7a 43 d2 3c a7 2d 3d 3d ca 63 83 3d
       0.05777564 0.025666941 0.046186116 0.06415518
0001c0 6c e7 55 bc 07 9c b8 3d f3 d0 1b 3d 80 df a3 3c
       -0.013055664 0.09014135 0.038041066 0.020004034
0001d0 dc 87 13 be c0 86 9c 3c 74 d0 57 bd c2 fd 34 bd
       -0.14407295 0.019107223 -0.05268903 -0.044187315
0001e0 50 c8 53 3d 21 7f 95 3c 00 7b 23 3d 91 d1 95 bc
       0.051704705 0.018249096 0.039912224 -0.018288406
0001f0 06 0d 97 bc 02 3c 09 3d 2e d2 bc bb fb c7 3e bd
       -0.018438827 0.033504494 -0.00576236 -0.046577435

network_body._body_endoder.seq_layers.2.weight f4 [128, 128]
000000 29 9c 68 3d 76 14 a8 3d d5 7e fe bc 64 c9 3c 3e
       0.05678955 0.082070276 -0.031066338 0.184362
000010 34 b3 b6 bb a9 19 95 bd 3b 69 e6 bd fa 34 fd 3c
       -0.005575562 -0.07280285 -0.1125054 0.03090905
000020 49 b0 35 be 49 e2 e4 bd 5a 63 f4 bd 6c c4 27 be
       -0.17743029 -0.11175973 -0.11933012 -0.16383523
000030 30 28 46 3e b2 1b 9b 3c fe 4a 9d 3c d2 78 a7 3d
       0.19351268 0.018934105 0.019200798 0.081773415
000040 e6 1b 1f be 36 be d7 3d da 14 54 bc c7 40 44 3e
       -0.15537986 0.10534327 -0.0129444245 0.19165336
000050 e1 29 24 3d 98 7e 8a 3d 98 7d 9d bd c7 78 10 3d
       0.040079 0.06762427 -0.07689971 0.035271432
000060 00 5f 2d be 2a cb 65 bd f4 26 ac bb 6b 52 f4 bd
       -0.16930771 -0.056101955 -0.005253667 -0.119297825
000070 42 a4 57 be 5f 06 40 bd 8a 3c 49 bc e4 12 a2 3d
       -0.21058753 -0.046881076 -0.0122825 0.07913759
000080 be 2c 3f 3e 1b 13 a7 bc ad 45 24 3d 6e 0a 4a be
       0.18669412 -0.020394852 0.04010551 -0.19730541
000090 fc b2 35 be 07 99 92 3d 29 86 1b be 04 5d 49 3e
       -0.17744058 0.07158094 -0.15187897 0.19664389
0000a0 70 bb 6a bd 6d b1 8c bd 18 56 88 bd e7 ff 89 3b
       -0.05730766 -0.06869779 -0.06657046 0.004211414
0000b0 fd 4b 3e 3c 4e 0d 77 3c 9f 7b 5b bb 30 df c4 bd
       0.011614797 0.015078856 -0.0033490432 -0.09612882
0000c0 66 5a 58 bd 17 f7 91 3d 23 20 40 bd 34 20 05 3d
       -0.052820586 0.07127207 -0.046905648 0.032501414
0000d0 bf 11 d1 3c 3f 9b 6d bd 33 c0 83 be b1 57 b9 bd
       0.025521157 -0.058009382 -0.25732574 -0.09049929
0000e0 1c c9 1a be 5a 7a 8e be 59 e4 18 3e 9c 1c 64 bb
       -0.1511578 -0.27827722 0.14930858 -0.0034807092
0000f0 b3 a4 ca bc 8d a0 cc bd e3 0d 6b be 3f 37 16 3e
       -0.024736738 -0.0999156 -0.22954516 0.14669512
000100 40 67 98 3c 36 62 23 be db 4c 16 be 83 cd 6d 3d
       0.018603921 -0.15955433 -0.14677756 0.05805732
000110 88 41 4a bd 3a 3c 85 3d 41 f8 11 be 71 b3 28 be
       -0.0493789 0.06505628 -0.14254858 -0.16474701
000120 97 82 02 3e 00 41 43 bd 82 fe 16 3e 83 36 91 bd
       0.12745129 -0.04766941 0.14745525 -0.070904754
000130 52 e2 c2 bd 36 99 9f 3d 10 58 d0 3d 85 2f a4 3d
       -0.095158234 0.077928945 0.101730466 0.08016876
000140 bb c9 3b be 49 f5 cf 3d e3 c9 58 3d 8a da 8f 3d
       -0.18338673 0.10154206 0.05292691 0.07024105
000150 08 91 4a be 69 85 18 be 15 03 e0 bd 29 6e 53 bd
       -0.19781888 -0.14894642 -0.10938088 -0.05161873
000160 d1 c8 94 be 4e 1e 0f bd d0 d2 1b 3d 2c b7 18 be
       -0.2905946 -0.03494101 0.038042843 -0.14913625
000170 5d b1 b6 bd 79 7a 78 3d 9b 1c 95 3c c6 b0 6b 3d
       -0.08920548 0.060663674 0.018202117 0.05754163
000180 1c 04 fd 3d 7f 18 22 3d 60 b2 87 3d b4 d8 51 be
       0.123542994 0.039574143 0.06625819 -0.20492822
000190 2a 10 4c 3d 3f 41 08 3e 3b 08 76 3d a6 2d de bd
       0.049820103 0.1330614 0.060066443 -0.108485505
0001a0 eb 64 c2 3d 24 1b a6 bd 4d 4b ca bb 37 cf d5 bd
       0.09491905 -0.081106454 -0.0061735273 -0.10439914
0001b0 59 4d f2 bc ce 87 cc bb fe de 85 bd dd 56 0b be
       -0.029577898 -0.006241775 -0.06536673 -0.13607354
0001c0 c9 b1 11 3d 1e d1 f9 bc 34 b4 db bd a1 91 e3 bd
       0.03556994 -0.030495223 -0.107277304 -0.11111761
0001d0 3b e2 2f 3d ce cb 86 3c 36 be 18 be 59 ab 05 be
       0.04294036 0.016454604 -0.1491631 -0.13053645
0001e0 68 71 0e be 55 07 c1 bc 0a 98 1b bd 2d 94 b1 bb
       -0.13910449 -0.023563066 -0.037986793 -0.0054192753
0001f0 eb a3 fc bd 5d 49 fd bc 5a 1b c2 bc 52 c3 97 3d
       -0.12335952 -0.030918771 -0.023694683 0.07410301
000200 fd 26 88 be 68 3b 14 3e 33 56 46 be 3c cd 02 3e
       -0.26592246 0.14475787 -0.1936882 0.12773603
000210 44 50 85 bd 37 e4 00 be 49 eb 8f be 35 a9 a1 3e
       -0.0650945 -0.12587057 -0.28109196 0.31574407
000220 b8 5b 9d bc 05 44 83 bb b8 a2 b0 3d bb e3 73 bd
       -0.019208774 -0.0040059113 0.08624786 -0.059543353
000230 ed c7 04 be dd d2 e0 bc 9f 0e 99 bd c7 04 05 3d
       -0.1296689 -0.027444297 -0.07473492 0.03247526
000240 5d d7 10 3e 6d 28 2a 3e 1f 9a 14 bd a2 12 22 bc
       0.14144655 0.16616984 -0.036279794 -0.009892138
000250 ac ec 63 3c fb 59 b3 3d ed 21 b1 3b f0 c2 1e bd
       0.013911407 0.08757397 0.0054056556 -0.038760126
000260 60 80 14 3e 99 46 f6 3d 42 86 8b bd ec ba 4b 3e
       0.14502096 0.12025184 -0.06812717 0.19895524
000270 83 b9 72 3e db 03 4d 3c 03 bf 3f 3c e4 f9 5c 3d
       0.2370358 0.012513126 0.011703256 0.05394925
000280 e2 e8 d1 3d d1 48 73 3d 33 73 19 3d 36 64 bc bc
       0.10249497 0.059395615 0.03746338 -0.022997003
000290 b8 36 e9 bc 12 9d a4 bd 71 5c 0b be 64 ff b8 bd
       -0.028468475 -0.08037771 -0.13609482 -0.09033087
0002a0 db cc df 3d b9 6b e8 3d 22 7e 58 be d9 db 7b 3d
       0.10927745 0.113486715 -0.21141866 0.06148896
0002b0 32 d6 51 3d cb 65 00 3c 35 43 06 3d 50 1a 8f bd
       0.051229663 0.007836769 0.032778937 -0.069874406
0002c0 82 e6 42 3d 92 3f 79 be 28 87 86 bc 13 0f 1c be
       0.04758311 -0.24340656 -0.01642187 -0.15240125
0002d0 2a 6a 1f be ea 88 3c 3e c2 4b a4 3d 52 67 16 bc
       -0.15567842 0.18411604 0.08022262 -0.009179907
0002e0 04 bc ab bd 2d f4 2e 3d c3 10 16 bc 45 65 a0 3d
       -0.083854705 0.042713333 -0.00915927 0.07831816
0002f0 8d b2 7c bd 10 cd 01 3d 9d a6 d2 3d 26 e7 a5 3d
       -0.061693717 0.031689703 0.10285685 0.08100729
000300 2c d8 68 3d e5 09 5b 3e b3 a2 fe bd e3 b5 27 3d
       0.056846783 0.21390493 -0.12433376 0.040944945
000310 e8 a6 49 3d b9 0a c1 3d 47 23 fd bd 81 87 0c 3d
       0.04923144 0.09425873 -0.12360244 0.034308914
000320 8c a2 81 3e 5b c1 f5 bd 74 4d 9c 3d 4c 9c 9e 3c
       0.25319326 -0.1199977 0.076319605 0.019361638
000330 d6 df 99 3e 55 03 45 3e b4 e3 61 be 44 8d 70 3e
       0.30053586 0.19239552 -0.22059518 0.23491389
000340 77 e3 40 bd 9f ae cc 3d c6 12 c8 3c 7e 41 94 bc
       -0.047091927 0.09994244 0.024423014 -0.018097635
000350 1e 8b f8 bd 97 f2 c1 3a 5b d1 f3 3c b8 01 3e 3d
       -0.121359095 0.0014797029 0.029762914 0.046388358
000360 28 b2 3a bc 6b a5 27 3b bf 77 d4 3c 1f 00 0a 3e
       -0.011395015 0.0025580775 0.025936006 0.13476609
000370 83 33 8d bd a4 22 ca 3a ef 86 06 bd df 43 2b 3e
       -0.06894591 0.0015421701 -0.032843526 0.1672511
000380 7d 73 83 3d 9e f7 3e be eb c3 22 bd 36 56 ab 3d
       0.06418512 -0.18649146 -0.039737623 0.08366053
000390 3d e2 1c be 5b 43 08 bb 0a 65 d2 3d b4 d1 a9 3d
       -0.15320678 -0.00207921 0.10273178 0.08291951
0003a0 7f c9 14 bc d4 6d 8a 3d 14 2a 6d bd db 57 73 3d
       -0.009081244 0.06759229 -0.057901457 0.059409957
0003b0 30 5b 8c 3c fb 49 a4 3d da d4 b2 bd 6a 57 98 bc
       0.017133325 0.08021923 -0.087320045 -0.01859637
0003c0 ac 4f 73 bd c2 d5 fb 3d 2e 27 0c bd bf 9a 50 3e
       -0.059402153 0.122966304 -0.034217052 0.20371531
0003d0 51 dc 8b 3d 0e 17 69 3e 08 28 a1 3c ee aa d9 bd
       0.068291314 0.22762701 0.019672409 -0.106283054
0003e0 f1 56 f9 bc cb 6a 8a 3c 51 ee c4 bd dc 4c 40 3c
       -0.030436965 0.016896626 -0.09615768 0.011737075
0003f0 11 44 8d 3b 21 0a 16 bc db d0 32 bd e9 18 5a 3c
       0.0043110927 -0.009157688 -0.04365621 0.013311603

network_body._body_endoder.seq_layers.2.bias f4 [128]
000000 f1 93 66 bd 96 fa a5 3d 27 43 a2 3c 37 e2 8c 3d
       -0.05629343 0.08104436 0.019807411 0.068790846
000010 79 83 05 3c 4f 92 19 3d 48 8d b9 bb 18 53 79 3d
       0.008149021 0.037493046 -0.005662594 0.06087026
000020 a3 ea 82 3b 51 80 54 bd 3b 12 29 b8 83 9a 24 bd
       0.003995256 -0.051880185 -4.030972e-05 -0.040186416
000030 98 84 98 3d 78 bd 46 3d ab 02 4f 3d 2a 17 d9 3c
       0.07447165 0.048520535 0.050539654 0.026500303
000040 e6 db 75 3d 1a 1a a5 3a 01 3a 6b 3c c8 5c 32 bc
       0.060024165 0.001259628 0.014357091 -0.010886379
000050 bf 6f 3f 3c 10 5d 32 3d f5 88 e5 bc 59 61 64 3d
       0.011684357 0.043545783 -0.028019408 0.0557569
000060 cb db bd 3c e3 d3 f2 3c ba 78 5b 3b c9 b6 96 3d
       0.023176095 0.029642051 0.0033488707 0.07359082
000070 21 34 c5 3d 03 29 2b 3d cf 07 35 3d 87 69 52 3d
       0.096290834 0.04178716 0.0441969 0.05137017
000080 26 0f 8f 3d 11 0e 56 bd 93 53 84 3c 88 72 3e bd
       0.06985311 -0.05225951 0.016153133 -0.046495944
000090 e8 dd cc 3c d3 8a 9d 3d 41 ec bb 3a ff 06 0f bd
       0.025008157 0.07692494 0.0014337377 -0.03491878
0000a0 3a d9 3d bd ae dc 26 bd 56 92 45 3d 72 27 33 3d
       -0.04634974 -0.0407378 0.04823526 0.04373879
0000b0 5b 0e 1d 3d 86 9e 16 3d c2 88 d8 3c 8f 76 94 3d
       0.03834377 0.036772273 0.026432399 0.07249176
0000c0 62 c2 a5 3c 65 b7 d6 3b 71 64 34 3d 43 f1 a8 bc
       0.02023429 0.006552624 0.0440411 -0.020622855
0000d0 9d 0f 7d bc dd d8 c6 3c 86 49 58 3d 6a ab 29 3a
       -0.015445617 0.02427333 0.052804492 0.0006472381
0000e0 29 0f 2a 3d 8c e4 ca 3b 94 21 b4 3d 9e b5 67 3b
       0.041518364 0.0061917957 0.08795467 0.0035356055
0000f0 e2 08 bf 3b c3 1f 22 3d d0 b2 20 3c 75 47 c5 3c
       0.0058299163 0.03958107 0.009808257 0.024081925
000100 d5 92 43 3c 87 e4 3e bd 04 77 e7 bc f9 1c 38 bd
       0.011936863 -0.04660466 -0.028254993 -0.044949505
000110 4a 8a 5a 3d ac c8 a6 3c 2a 58 3d bc ea 3d 12 3c
       0.05335454 0.02035936 -0.0115566645 0.008925894
000120 fa 80 33 3c 5e 49 39 3d 48 6f 1e 3d 4d a1 1b bc
       0.010956043 0.045235984 0.038680345 -0.009498906
000130 7d 08 3b 3c 25 c2 ac 3b a4 f8 a8 3d b5 9c 10 3d
       0.011415598 0.0052721673 0.082505494 0.035305697
000140 c1 fa 1b 3d 5f 10 85 3d 1d 4a 29 3d a9 9e 56 3c
       0.038080934 0.06497263 0.041330446 0.013099351
000150 8f 07 25 3d 7d a7 69 3d 90 a1 12 bc aa d3 2b 3d
       0.04029041 0.057044495 -0.008949652 0.041949905
000160 9e 7d 8c bc 59 d2 89 bc b7 dc 2d 3d 65 a6 ce 3c
       -0.017149743 -0.016823934 0.04244682 0.025225827
000170 df 56 4e 3d 74 a8 75 3d c2 6f 30 3d 1d 02 44 bb
       0.050375815 0.059975103 0.04307533 -0.0029908486
000180 da 47 90 3d da 34 ad 3c 29 8f 5e 3d 78 d1 24 3c
       0.070449546 0.021143366 0.054335747 0.010059707
000190 74 52 c2 3c 59 e5 78 3d 10 ba 04 3d 5b df ba 3c
       0.023720957 0.060765598 0.032404006 0.022811582
0001a0 16 aa d6 3d 19 64 81 bb 5b ba 18 3d 1f 45 0c 3b
       0.1048166 -0.0039487 0.037287097 0.0021403504
0001b0 90 a7 88 3d a7 ce 90 3b 79 fe 41 3d 9d 98 47 3d
       0.06672585 0.004419166 0.047361825 0.048729528
0001c0 da 6f 19 bd cd 03 2b 3d 2e 8e fc 3c 3e 8e 42 bd
       -0.037460186 0.04175167 0.030829515 -0.047498934
0001d0 3b ae f9 3b 03 14 79 3d 2c cb f8 3c d4 7c e7 3c
       0.007619647 0.0608101 0.030370317 0.028257765
0001e0 2e 8a d2 3c f2 98 16 3d a1 62 1c bc 5c 41 c2 bb
       0.025700655 0.036766954 -0.009544999 -0.0059282016
0001f0 3d b8 8f 3c f7 52 31 bd cf 7b 05 bd 1a 70 56 3c
       0.017543906 -0.043292012 -0.032588776 0.0130882505

action_model._continuous_distribution.log_sigma f4 [1, 2]
000000 0e 8b 23 be 03 b4 4d be
       -0.15971014 -0.200882

action_model._continuous_distribution.mu.weight f4 [2, 128]
000000 8f 16 1c bd 91 47 30 bd b4 4e 82 3d 82 df d4 bd
       -0.03810745 -0.043037 0.06362668 -0.10394193
000010 50 99 c4 bc 4a f5 b3 bd 48 19 ff 3b 9b c8 b3 bd
       -0.023998886 -0.087870196 0.007784996 -0.08778497
000020 50 63 b0 bc f0 26 45 bc 1f 8c 87 3d db 7d 5e 3d
       -0.02153173 -0.012033209 0.06618523 0.054319244
000030 53 7a 86 3d c0 13 8a 3d d8 4d b2 3d 0f 26 d4 bc
       0.065663 0.06742048 0.08706254 -0.025897054
000040 bf 22 cd 3d e6 b8 c9 3c df 21 7f b8 83 d4 79 b9
       0.10016393 0.0246243 -6.0828283e-05 -0.00023825657
000050 82 a6 0c 3d 9c cb c5 3d 45 c5 d1 3c 9e bf c8 bb
       0.03433848 0.09657976 0.02560676 -0.006126358
000060 0d a2 a8 3d e9 8c 65 3d 9f 51 f6 bc 60 64 24 bc
       0.08234034 0.056042586 -0.030068217 -0.010033697
000070 2c d2 13 3e 66 cd dc bc b8 50 6a 3d 0f 1f eb 3d
       0.14435643 -0.02695341 0.057205886 0.11480533
000080 1c bf d6 bb 85 3f 8c bc 29 f9 cd 3d e8 2d 94 3c
       -0.0065535437 -0.017120132 0.10057289 0.018088296
000090 d7 08 9b bc 4b ff 57 3c b6 2b a6 3d 65 7f 50 3b
       -0.018925114 0.013183425 0.08113806 0.0031814214
0000a0 c4 f1 1c 3d fb e3 74 bd 7b 6b 06 3d 28 ff 89 bd
       0.038316503 -0.05978773 0.032817345 -0.0673812
0000b0 d1 ab ae bd 21 ec 81 bd 65 1b 89 3d 41 c0 61 3c
       -0.08528865 -0.06343866 0.06694678 0.013778747
0000c0 d5 31 27 bd d9 df 83 3d ae 9f d0 3c 6f 09 bb bc
       -0.040819008 0.0643918 0.025466766 -0.022831647
0000d0 83 fc 09 3c f9 3c f0 3c d8 d0 be 3d ad 65 a0 bc
       0.00842202 0.029325949 0.093171775 -0.019579733
0000e0 5e 61 a6 3d 6a 91 3e bd d0 b3 a8 bb 5c a1 05 bc
       0.0812404 -0.046525396 -0.0051483884 -0.008156147
0000f0 83 82 1b 3d 1f 6e 9d 3d 87 42 30 bd 56 eb 0d bd
       0.037966263 0.076870196 -0.043032195 -0.034648262
000100 4b 40 8e 3d ac d6 dd 3c 84 a1 3d 3d 38 88 2f bd
       0.06945857 0.027079903 0.04629661 -0.042854518
000110 51 7c af 3c 2f bc 8c 3d da a6 54 3d 75 6c 8c bd
       0.021421583 0.06871831 0.051916935 -0.06856624
000120 45 b9 86 bc 4f a9 d4 3b 00 ce cc 3a f8 98 17 3d
       -0.016445765 0.0064899097 0.0015625358 0.037011117
000130 63 37 65 bd 7d ff 4e 3d b9 6d b6 3d a9 10 a2 bd
       -0.055961024 0.05053662 0.08907647 -0.07913334
000140 e2 8a 5f bd 46 52 de 3d 61 d0 e4 3d ca 99 bb 3c
       -0.05457581 0.10855536 0.111725576 0.02290048
000150 0f 2f 81 3d 0d ab b4 bd 3f 02 5a bd 1f eb 8b bd
       0.06307804 -0.08821688 -0.0532248 -0.06831955
000160 ab 4c 5c bd 43 66 a5 bb 3a 56 49 3c b0 a3 ce bc
       -0.053784054 -0.005047591 0.012288624 -0.025224537
000170 6f de 4d 3d 14 c6 95 bd 75 66 c1 3d 0f 1d 2e bc
       0.050260957 -0.07313171 0.0944337 -0.010627045
000180 fb 97 a2 3d 8a e4 2a bc 50 ed 75 bd dd 1f 9d bc
       0.07939144 -0.0104304645 -0.060040772 -0.019180233
000190 0c de 0e bd 6d ab 01 3e ec 26 fe 3c be 7a 97 bc
       -0.03487973 0.1266305 0.031024419 -0.018491145
0001a0 20 79 12 3e 43 82 39 3d 39 b8 65 3d 9d 9c e4 bc
       0.14304018 0.045290243 0.05608389 -0.02790671
0001b0 d5 7f c1 bd 10 0c cd 3b 05 9b bc 3d 1c f8 c3 bd
       -0.0944821 0.0062575415 0.09209255 -0.095688075
0001c0 0c 9c 9a bc 58 0b 3a bd db ee fb 3b 45 71 c9 bc
       -0.018873237 -0.045420974 0.007688386 -0.024590144
0001d0 7f 7d 8f bc d8 e8 06 3c 32 f5 4f bd 57 cd d9 3d
       -0.017515896 0.008234225 -0.050770946 0.106348686
0001e0 04 e5 87 3d de b8 66 bc 65 4a 8f bd f0 14 0d 3d
       0.06635478 -0.014082162 -0.069966115 0.034443796
0001f0 91 f3 43 bd bd cc 30 bd 5f 6b 8b bd 86 7f 61 bd
       -0.047839705 -0.043164004 -0.06807589 -0.055053256
000200 b6 73 09 3d 87 75 eb 3d 16 65 83 3c b3 de 39 bd
       0.033557616 0.11497026 0.016039412 -0.0453784
000210 fe 44 da bd cf 05 39 3d 3f a0 4f bd d8 99 03 bd
       -0.106576905 0.045171555 -0.050689932 -0.03212914
000220 2d 09 8b bd 6e 5b d0 bc c3 bd db 3b 87 f4 d2 bb
       -0.067888595 -0.025434222 0.006705971 -0.0064378413
000230 78 9a 91 bd 73 ec e5 bc 8f f1 cb 3c a2 51 81 3d
       -0.07109541 -0.02806685 0.024895458 0.06314398
000240 9c 5a 5d 3a 97 30 7e 3c 87 f2 97 bd 19 36 80 bd
       0.0008443983 0.015514514 -0.07419305 -0.06260318
000250 65 26 56 bd 3e 11 e4 bc 14 7c f6 bc e0 cb 9b 3d
       -0.05228271 -0.027840253 -0.030088462 0.076072454
000260 4a 71 8f bb 29 b1 38 3d 0a 3a a4 bc 78 4c b2 3d
       -0.004377519 0.045090828 -0.020047206 0.087059915
000270 f5 fb bd bc 96 f5 85 3d 77 a3 b0 bd 47 12 99 3c
       -0.023191432 0.065409824 -0.086249284 0.018685473
000280 33 f2 a1 3d 7b 9a 5c 3b aa a5 e6 bb 0c 56 cb bb
       0.07907524 0.0033661413 -0.0070387917 -0.006205326
000290 01 ee 95 3d ac 29 de 3d 95 5f 48 bd 36 74 87 3a
       0.07320786 0.10847792 -0.04891928 0.0010334316
0002a0 61 59 b2 ba 19 7e a5 3c 32 eb 92 3d fc 86 79 bd
       -0.0013606959 0.02020173 0.07173766 -0.060919747
0002b0 95 26 21 bd 6a 3b 8b 3d d7 b8 2d 3c bf 3b 31 be
       -0.039343435 0.06798442 0.010603151 -0.17307948
0002c0 2f 0c 71 bc ee 5c 08 bc 2f 9c 11 3d 62 ea 65 3c
       -0.014712377 -0.008322937 0.03554934 0.014032932
0002d0 7e 05 2c bd f6 73 d0 bb a2 98 b6 bd a6 8c 71 bd
       -0.041997425 -0.00636148 -0.08915831 -0.058972023
0002e0 1e ec ba 3c 6a bb 80 bd e9 d9 10 3e df 33 51 3d
       0.022817668 -0.062857464 0.14145626 0.05107486
0002f0 27 73 c2 bd 09 ef 10 bd 47 92 74 3c 9a 74 64 bd
       -0.0949462 -0.03538421 0.014927453 -0.055775262
000300 c5 a4 ad 3c ae 37 64 bd da d7 24 bd 48 d6 f6 bc
       0.021196732 -0.055717163 -0.040244915 -0.030131474
000310 0a f1 c6 3d f0 4c ef bc 3b 88 02 3b b5 1d 47 bc
       0.09713943 -0.029211491 0.0019917625 -0.012153079
000320 35 cb 95 3d 1e bf ad 3d ac 02 8f 3d 83 a3 f4 bc
       0.07314149 0.08483718 0.069829315 -0.029863125
000330 f3 1e 3d bd 8d 95 13 3b 4e e8 ac bd 75 6c 07 bd
       -0.046172094 0.002251956 -0.08442746 -0.033062417
000340 0c 80 f4 3c 1c 2c 5d 3d 45 12 da 3b 06 d3 ab bd
       0.029846214 0.053997144 0.00665501 -0.08389859
000350 c9 de b7 bb 1c 5b 64 bd 83 8d 1b bd f0 d8 72 bd
       -0.005611275 -0.05575095 -0.037976753 -0.05928892
000360 94 cf 05 3d 19 48 4a 3d c4 52 89 3d d7 1a a9 bd
       0.032668665 0.049385164 0.067052394 -0.082570724
000370 83 ef 67 bd 0d ad da bc 60 2f 03 bc 0b 6c 02 3d
       -0.0566249 -0.026693845 -0.008006901 0.03184132
000380 81 57 0c 3c 19 66 8e bd 4e 40 31 3d 28 69 d1 3a
       0.008565784 -0.06953067 0.043274216 0.0015976774
000390 d6 f4 9b 3d 67 83 0a bb 46 fb 39 bd e9 e7 37 bc
       0.07615058 -0.002113545 -0.04540565 -0.011224725
0003a0 d5 52 ab bd 99 16 68 bd c2 6f 98 bd 87 0b 55 3d
       -0.08365408 -0.056662176 -0.07443191 0.052012946
0003b0 a9 e9 a0 bc 07 e8 be 3c a3 ee 33 bd 3f 23 8f bd
       -0.019642668 0.023303999 -0.043928754 -0.069891445
0003c0 52 ae 6a 3d df 8f 0c 3d af 17 20 3d 3c 0d d0 bc
       0.05729515 0.034316894 0.039085086 -0.025396936
0003d0 7b 82 9b 3d e8 05 c4 bd 71 b7 3a bd 9c e8 57 bd
       0.075932465 -0.09571439 -0.0455851 -0.052712068
0003e0 e5 bb d8 3c 46 b7 a8 3d ac 1f af bc 00 6b a2 bd
       0.026456783 0.08238082 -0.021377407 -0.07930565
0003f0 01 d4 8e bd 10 80 7d bc 9a 33 0a 3d c3 ba fd 3b
       -0.0697403 -0.015472427 0.033740617 0.007743211

action_model._continuous_distribution.mu.bias f4 [2]
000000 20 24 ba 3b d8 1e 95 3c
       0.005680576 0.018203184

exp_avg f4 [128, 8]
000000 9e c3 46 bc d9 d2 15 3a c1 d7 ae b9 b2 5f 8f bb
       -0.0121316 0.00057153177 -0.00033348615 -0.0043754214
000010 b3 f1 1a 3a 3b a8 a7 3b 7f fa a3 bc 8e 60 9d 3c
       0.000591065 0.00511649 -0.020016907 0.01921108
000020 4e 5a 1d bc 6d 1e 17 3a 55 f7 6a ba bf 50 e8 bb
       -0.00960405 0.00057647267 -0.0008963247 -0.007089704
000030 0a 1a c4 39 dc 17 69 3b ca 74 4a bc 97 9b d7 ba
       0.00037403434 0.00355672 -0.012356946 -0.0016449568
000040 17 fc 13 bc 46 b6 fd 3a e1 dc 09 bb 96 f9 be 3b
       -0.009032271 0.001935669 -0.0021036195 0.005828093
000050 70 09 01 3b e3 e9 2a 3b 80 bd d2 ba 1e 76 2c 3a
       0.0019689463 0.0026079349 -0.0016078204 0.000657888
000060 62 10 4e 3b 5d 10 9f ba 07 fc 92 3b a5 b1 b5 b9
       0.003144287 -0.0012135614 0.0044856104 -0.00034655366
000070 4f 7b a1 ba e7 5a 98 3b 92 95 76 bc 36 16 b6 3c
       -0.0012320074 0.0046495083 -0.015050309 0.022227388
000080 f6 ba 3d bc 81 64 7d 3a b5 57 01 3b a0 35 0e bb
       -0.0115802195 0.00096661603 0.0019736115 -0.0021699443
000090 79 13 80 3a 01 ee 73 3b 81 38 bb bb 52 ea 49 3b
       0.0009771428 0.0037220719 -0.005713523 0.0030809832
0000a0 df f6 99 bc 6f 37 14 3b 78 5d 94 bc 86 4b 9e bb
       -0.018794475 0.0022616049 -0.018110976 -0.0048307804
0000b0 bb 81 14 3b 8f e1 2a 3c 9e c1 04 bd 84 c8 ad 3c
       0.0022660333 0.010429754 -0.03241121 0.021213777
0000c0 8c bf 8c bb 11 b9 f6 3a 11 b7 8f bb 79 9c 54 bc
       -0.004295295 0.0018823465 -0.004385837 -0.012976759
0000d0 5b 63 dd 3a 70 29 17 3c db 54 ab bc 77 bf 6a 3c
       0.0016890572 0.009226188 -0.020914486 0.014327875
0000e0 9c e8 8e 3b 93 75 35 38 63 6a 8c 3a 2b 98 da 3a
       0.0043612253 4.3263262e-05 0.0010712858 0.001667743
0000f0 fb 72 36 38 7a b5 bb 3a c4 f5 b4 3b 24 b6 51 3a
       4.3499265e-05 0.0014321052 0.0055224616 0.00079998584
000100 7a 8e 77 bc 92 8f 65 3b 4a 9f d1 bb 21 2e ac bb
       -0.015109653 0.0035028202 -0.0063971626 -0.0052545224
000110 3c 00 60 3b b7 9d 1a 3c 49 08 fc bc 61 df d0 3c
       0.0034179827 0.009437016 -0.03076567 0.02549714
000120 d1 76 1a bc 58 6b 00 39 65 82 70 3b 30 39 04 bc
       -0.009427742 0.0001224702 0.0036698815 -0.008070275
000130 69 f9 7a b8 d3 72 8f 3b d8 b5 15 bc c3 2d 57 39
       -5.9836926e-05 0.004377702 -0.009137593 0.00020521045
000140 54 83 d0 bb 59 0d 4a 3a e2 5f 9c b9 7f b3 33 3a
       -0.006363312 0.00077076774 -0.00029826077 0.0006855055
000150 d1 f7 54 3a c4 6d 20 3a f0 65 b3 bb 25 a3 0f 3c
       0.0008124086 0.0006119872 -0.0054747984 0.008766924
000160 45 0a c3 ba 5f 30 5d 3a 1b fc 28 3b 0f 88 8e 3b
       -0.001488038 0.0008437689 0.0025785032 0.0043497155
000170 2d 4e 5d 3a cc 78 8c 3b 20 ec f7 b9 36 ea c1 3a
       0.000844213 0.004286861 -0.00047287438 0.0014794532
000180 d1 02 97 bb 66 cc 0d 3b a5 c4 0f 3b 3c e0 e2 bb
       -0.00460849 0.0021636724 0.0021937278 -0.0069237035
000190 4e b1 fc 3a 6a 81 21 3b 11 2b b7 bc 14 0b ba 3c
       0.0019278915 0.0024643787 -0.022359403 0.02271036
0001a0 40 a6 7b bc 29 79 cf 3a f5 c2 f7 39 b2 39 7b bb
       -0.015359461 0.0015828955 0.00047256766 -0.003833395
0001b0 41 f4 d3 3a 79 59 06 3a c3 fc fc ba 93 f9 0a 3a
       0.0016170816 0.0005125027 -0.0019301403 0.00053014717
0001c0 07 b4 d5 ba c6 79 50 3a 3e b3 11 3b 6b cc 0e bc
       -0.0016304263 0.0007952716 0.002223208 -0.008715729
0001d0 6e 0d 30 3a 8a 0f da 3b b3 53 19 bc 0c 5d 15 3c
       0.00067158684 0.0066546844 -0.009358334 0.009116422
0001e0 55 82 8c 3a 9b 97 ce 39 4c 0a 01 3b 1b ef ed ba
       0.0010719994 0.00039404337 0.0019689975 -0.0018152924
0001f0 ca 0a cd 39 b6 90 10 3a 7d 30 d4 3a 1e 24 23 bb
       0.00039108685 0.00055147277 0.0016188767 -0.0024893354
000200 3d ab 3b 3c 7d c1 58 b9 6a 5d b6 3b 54 f7 01 3a
       0.011454401 -0.00020671445 0.005565335 0.0004957814
000210 e5 e6 59 b9 3d ed 2d 3b 73 5a 4f 3c 9d 37 34 bc
       -0.00020780748 0.002653911 0.012655842 -0.010999587
000220 1d 91 d0 3c 30 7f 1d ba 8b ce 93 39 06 5c 51 ba
       0.02545982 -0.0006008027 0.0002819191 -0.000798643
000230 7e 0c 1e ba bf 8a 14 3a 2b 21 ae 3c 66 f5 8e bc
       -0.0006029083 0.0005666427 0.02125605 -0.017451
000240 a4 c5 af 3a 31 44 65 ba c6 78 0f 3c bd 0f d6 3a
       0.0013410342 -0.0008745818 0.008756822 0.0016331595
000250 47 a5 68 ba 72 3a 5d bb 2d 98 83 3c 77 c0 28 bc
       -0.0008874726 -0.003375676 0.016063774 -0.010299793
000260 bb 97 6b 3b 0b 52 64 39 27 3f 7d ba fd e2 a1 3a
       0.0035948593 0.00021774338 -0.00096605945 0.0012350973
000270 3f 1c 73 39 51 6c 05 bb 6b 48 70 3b df af 4e b9
       0.00023184808 -0.002035875 0.0036664258 -0.00019711208
000280 3b 27 f5 bb e1 c9 be 3a 31 b2 50 3c a0 06 31 3b
       -0.0074814833 0.0014556014 0.012737797 0.0027012005
000290 29 7c c6 3a 81 c2 c0 39 4a 6e 0c 3c c1 91 ee 3b
       0.0015143204 0.0003676601 0.008571217 0.007280559
0002a0 99 e1 1b bc c4 c7 18 3b 37 d2 77 bb 11 61 0f bc
       -0.009514236 0.002331243 -0.0037814507 -0.00875117
0002b0 b4 c4 18 3b 6d 17 29 3c 20 10 6d bc d7 7b 87 3b
       0.0023310604 0.010320527 -0.0144691765 0.004134636
0002c0 e2 25 5e 3c 86 7e 3f 3a f2 ac 11 bc 39 b9 6f 3b
       0.013558837 0.0007304925 -0.008891331 0.0036578907
0002d0 27 2b 1a 3a 10 da 27 3b 48 e3 ca bb 9f 97 d1 3b
       0.0005881064 0.0025612153 -0.006191645 0.0063962485
0002e0 93 af 3c ba 38 dc 00 3a 40 bd b7 bb d9 99 0b ba
       -0.00071977935 0.00049156277 -0.005607277 -0.0005325354
0002f0 5b 34 01 3a 52 a8 11 3b 66 70 4a ba 30 be 81 3b
       0.0004928761 0.002222557 -0.0007722437 0.0039594397
000300 91 11 03 3c d8 b2 9f 3a 81 d6 d3 ba d2 96 da 3b
       0.007999794 0.0012184037 -0.001616195 0.006670811
000310 71 b4 9e 3a a2 f9 92 3b 14 84 75 3a f8 b5 ab 39
       0.0012108219 0.004485325 0.00093656895 0.0003275124
000320 9a a3 c4 bb 01 18 c2 3a fb bb e9 3a a8 cd 21 bc
       -0.006000948 0.0014808179 0.0017832512 -0.009875692
000330 13 77 b0 3a 2c 30 da 3b b2 f7 8a bc bc 7d 49 3c
       0.0013463221 0.0066585746 -0.016963813 0.012298044
000340 a4 af 8a bb 9c 3c 9c 3a 21 d8 8e bc c4 fc 16 bb
       -0.004232364 0.0011919918 -0.017437043 -0.0023038844
000350 8e fa 9a 3a 7d 7f c5 3b 26 11 2f bc 2b 92 29 3c
       0.0011823939 0.0060271607 -0.010685241 0.010349791
000360 1f 04 1a 3c a1 b5 a3 b8 ee 26 20 3c 0f 9b 01 b8
       0.009400397 -7.806277e-05 0.009774907 -3.0900406e-05
000370 ed 3f 9c b8 b2 a8 85 3a 8e 4f 8b 3c 35 7c 45 bc
       -7.450567e-05 0.001019737 0.017005708 -0.012053539
000380 3e 0f 89 b9 16 03 d2 3a 56 6e 46 3a bf cd ad 3a
       -0.00026142033 0.0016022648 0.0007569542 0.001326017
000390 4d 68 c6 3a d1 81 f5 3b 7e b0 2b bb 49 3c fe 39
       0.0015137285 0.007492282 -0.0026197727 0.0004849157
0003a0 c3 33 2a bb 0a da 7e b8 ac c5 78 bb 71 7a 4b 3a
       -0.0025970794 -6.0761384e-05 -0.0037959618 0.00077620806
0003b0 82 f9 7f b8 43 9a 27 39 2d 56 1d 3a b8 ad 2c bb
       -6.102911e-05 0.00015983828 0.0006001916 -0.0026348662
0003c0 07 e9 b6 bc 9a cc 1e bb 7a ad e1 3b a0 18 15 bb
       -0.022327913 -0.0024230839 0.006887135 -0.0022750273
0003d0 86 88 20 bb cc a3 94 3b 7b 8d 10 3c 18 34 c0 bc
       -0.0024495437 0.0045361277 0.008822794 -0.02346234
0003e0 79 af 22 3c fb 67 d3 b9 86 c3 0f 3b 13 da bf ba
       0.009929531 -0.00040322528 0.002193661 -0.0014637135
0003f0 63 0d d7 b9 af 37 00 bb d5 ae 4d 3c a3 76 e2 bb
       -0.0004101797 -0.001956444 0.01255389 -0.0069111153

exp_avg_sq f4 [128, 8]
000000 32 ee 1b 3b 32 5a ad 38 47 b4 16 3b 88 6f ec 3a
       0.0023793099 8.266083e-05 0.0022995637 0.001803861
000010 99 20 a6 38 bf d5 fc 3a 68 6d 48 3b 8b 90 1a 3b
       7.9215686e-05 0.0019289776 0.003058279 0.002358469
000020 c5 88 3e 3b e5 a7 e4 38 96 21 36 3b a7 42 a6 3b
       0.002907322 0.0001090316 0.0027791015 0.0050738635
000030 3e 9e d5 38 d2 ce d1 3a 3b 91 9a 3b eb 11 53 3b
       0.000101861064 0.0016007072 0.00471702 0.0032206725
000040 e0 e8 db 3a 86 b8 75 38 5b 58 e3 3a 26 d7 bc 3a
       0.0016777776 5.8584403e-05 0.0017345058 0.0014407381
000050 7c 13 70 38 3b 28 56 3a 6e a3 73 3b 32 5a 18 3b
       5.7238605e-05 0.0008169447 0.003717627 0.002324712
000060 d2 8d 23 3b 5d 52 b1 38 94 80 1a 3b a3 60 c3 3a
       0.0024956358 8.455359e-05 0.0023575174 0.0014906119
000070 1b 9a b0 38 13 1b 9d 3a 42 34 9b 3b c6 c8 57 3b
       8.4210384e-05 0.0011986218 0.004736454 0.0032926067
000080 ad 5f 02 3b 29 56 7e 38 92 f5 0d 3b 9c de c4 3a
       0.0019893453 6.0638562e-05 0.0021661264 0.0015019956
000090 e0 ee 75 38 30 d3 b8 3a 15 84 4c 3b 0c 49 46 3b
       5.863502e-05 0.0014101025 0.0031206657 0.0030255942
0000a0 6a 94 fb 3b 0c 8d 82 39 eb 26 ff 3b e2 c8 99 3b
       0.0076776044 0.0002490062 0.007786622 0.0046931366
0000b0 39 f4 76 39 f1 41 f0 3b c7 40 2b 3c 48 20 17 3c
       0.00023551368 0.0073320796 0.010452456 0.009224005
0000c0 04 5c f7 3b c4 48 89 39 05 29 05 3c f5 fd 38 3c
       0.007548811 0.0002618489 0.008127456 0.011291017
0000d0 1e 7f 79 39 91 4b c7 3b a7 01 1c 3c 54 80 01 3c
       0.00023793845 0.0060820063 0.009521878 0.007904131
0000e0 bb 09 7d 39 50 b0 59 37 19 0f 86 39 4f e4 9c 39
       0.00024131585 1.2975259e-05 0.0002556972 0.00029924742
0000f0 93 48 59 37 b1 4c 72 39 19 01 90 39 9f 0f 57 39
       1.2951105e-05 0.00023107488 0.00027466638 0.00020509817
000100 f8 be 94 3b f2 51 28 39 93 a7 a2 3b 67 2d b0 3b
       0.004539367 0.00016052256 0.004963824 0.005376506
000110 70 b4 1d 39 c6 8d 5b 3b 3c cf 07 3c 9b 05 d2 3b
       0.00015039905 0.0033501252 0.008289155 0.0064093596
000120 4d c2 1d 3b 8f ef b5 38 8f 91 07 3b c2 39 81 3b
       0.002407211 8.675374e-05 0.0020686125 0.003943653
000130 0b 1d a9 38 7f 3f df 3a bf 4d 2c 3b 12 bd 08 3b
       8.063958e-05 0.0017032473 0.0026291457 0.0020864648
000140 76 04 ab 3a a9 1e 33 38 16 ee a8 3a c4 76 85 3a
       0.0013047594 4.270548e-05 0.0012888338 0.001018249
000150 7c 5c 29 38 98 0d a8 3a d6 de ad 3a 47 44 be 3a
       4.0378873e-05 0.0012821434 0.0013265263 0.0014516198
000160 0d 4b 91 3a 1f 88 14 38 d1 ab 8b 3a a6 9e 30 3a
       0.0011084989 3.5412722e-05 0.0010656064 0.00067375076
000170 a9 b7 0d 38 c4 2d 86 3a aa 63 b0 3a 21 05 86 3a
       3.3788067e-05 0.0010237028 0.0013457437 0.0010224917
000180 16 a9 28 3c 04 21 bf 39 95 51 2f 3c dd 63 70 3c
       0.0102942195 0.00036454957 0.010700603 0.014672247
000190 7c ce b3 39 3b c5 c2 3b 65 1a 86 3c 71 25 64 3c
       0.00034295383 0.005943922 0.016370008 0.013924942
0001a0 93 a0 26 3b 7d d0 a8 38 08 06 1e 3b dc 9c 1d 3b
       0.00254253 8.049698e-05 0.0024112482 0.0024049794
0001b0 9f 21 a4 38 61 70 bf 3a 4a 50 50 3b 00 49 7b 3b
       7.826392e-05 0.0014605635 0.0031786137 0.0038343072
0001c0 28 e7 45 3b 90 25 f7 38 95 0f 54 3b 98 87 98 3b
       0.0030197594 0.000117848744 0.003235792 0.004654836
0001d0 8f c0 e2 38 b8 86 18 3b b8 ea 84 3b 65 95 4c 3b
       0.000108123866 0.0023273658 0.004056301 0.0031216976
0001e0 f9 a3 ef 39 58 5b 9a 37 38 21 02 3a 4f 88 a3 39
       0.00045707801 1.8400766e-05 0.00049640564 0.0003119134
0001f0 30 08 9a 37 8f b6 a4 39 cf 4c 19 3a 99 29 c3 39
       1.8362043e-05 0.00031416534 0.0005847932 0.0003722429
000200 66 6a c1 3b e9 43 3f 39 4f f8 ca 3b 32 5f 6a 3b
       0.0059025763 0.00018240478 0.0061941515 0.0035762307
000210 b7 93 38 39 02 92 8a 3b 36 9d 05 3c 32 dc 05 3c
       0.00017602635 0.0042288313 0.008155158 0.008170174
000220 f1 d9 ae 3b 3f 21 3c 39 45 33 ab 3b f6 ee 2b 3b
       0.0053360392 0.00017941462 0.0052246177 0.002623496
000230 99 df 3b 39 7c 68 31 3b 59 32 e1 3b a6 0c f4 3b
       0.00017917006 0.0027070334 0.006872457 0.007447797
000240 9b dd 1e 3b 9e 8e bd 38 8d e7 43 3b 50 ed 28 3b
       0.0024240974 9.038787e-05 0.0029892654 0.0025776215
000250 92 ab b8 38 a7 d6 c0 3a a7 90 ac 3b b1 a0 90 3b
       8.805761e-05 0.0014712409 0.0052662673 0.004413687
000260 3d 36 c1 39 21 65 7d 37 a6 e3 bf 39 b7 60 a2 39
       0.0003685224 1.5103521e-05 0.0003659997 0.00030971106
000270 68 25 7c 37 5f 8e 9f 39 ff 17 ef 39 3c 8b b0 39
       1.502908e-05 0.00030432918 0.0004560351 0.00033673074
000280 dd da 4e 3b 01 7f d2 38 d4 9e 4d 3b e5 ff 56 3b
       0.0031563558 0.00010037237 0.0031375187 0.0032806334
000290 88 cb cc 38 21 e7 bd 3a 9e b6 b9 3b b1 d6 8f 3b
       9.765389e-05 0.0014488437 0.0056675216 0.004389607
0002a0 48 fd f2 3a 56 cb 96 38 9f ee 0c 3b 85 5f ae 3a
       0.0018538618 7.190432e-05 0.0021504534 0.0013303614
0002b0 7d 1c 96 38 99 d1 c0 3a ac 5b 4f 3b 35 9d 7d 3b
       7.157864e-05 0.0014710902 0.0031640334 0.003869844
0002c0 97 92 33 3c 90 63 b1 39 d2 66 38 3c a3 43 18 3c
       0.010960243 0.0003383425 0.011254983 0.00929347
0002d0 25 5b ac 39 7c e3 df 3b 6a 8f 98 3c e5 e9 7b 3c
       0.00032874304 0.006832538 0.018623073 0.015375589
0002e0 5a 52 af 39 38 94 7f 37 6e c8 c2 39 83 26 84 39
       0.00033439958 1.5233694e-05 0.00037151895 0.00025205695
0002f0 ce 13 7f 37 80 38 75 39 a6 01 0f 3a 7c a2 fa 39
       1.5203796e-05 0.00023386069 0.0005455263 0.00047804776
000300 99 a4 d3 3b 32 60 5a 39 01 68 ff 3b 9f 76 96 3b
       0.0064588306 0.00020825936 0.0077943807 0.0045917775
000310 9e 0c 4e 39 7a 96 bc 3b 04 1c ee 3b c0 d7 e9 3b
       0.00019650391 0.005755243 0.0072665233 0.007136315
000320 f1 e2 ab 3a 82 ba 62 38 f5 fb a7 3a 3c 16 11 3b
       0.0013113898 5.4056298e-05 0.0012816178 0.0022138497
000330 88 cd 52 38 01 34 89 3a 5b 3c 12 3b 7a 8b c9 3a
       5.0259318e-05 0.0010467769 0.0022313807 0.001537665
000340 9c 1c 7e 3b 05 b5 14 39 85 3b 76 3b a0 4a 24 3b
       0.0038774377 0.00014181815 0.0037572097 0.0025068894
000350 a8 d4 11 39 25 b1 70 3b f8 b7 a1 3b 18 5d 8b 3b
       0.00013907498 0.003672668 0.004935261 0.004253041
000360 33 cb cc 3b 95 4e 48 39 8c 43 d7 3b 17 eb 60 3b
       0.006249809 0.0001910276 0.0065693315 0.0034319812
000370 ed e9 41 39 a0 35 81 3b ea a4 13 3c 73 1f 1c 3c
       0.00018493058 0.00394316 0.009011487 0.009528982
000380 06 6a 3d 3b 92 09 c2 38 e5 23 49 3b 5e 5a 31 3b
       0.0028902306 9.2524235e-05 0.003069156 0.002706192
000390 f0 f9 b7 38 09 2e 2e 3b f3 f9 36 3b c6 c3 2a 3b
       8.7726745e-05 0.0026577732 0.0027919977 0.0026056631
0003a0 12 f7 2a 39 20 29 cd 36 42 9f 0e 39 01 92 f7 38
       0.00016304504 6.1142637e-06 0.00013601503 0.00011805073
0003b0 60 c4 cc 36 5e 81 07 39 98 09 5d 39 70 84 40 39
       6.102535e-06 0.00012922796 0.00021079776 0.00018359884
0003c0 c8 15 14 3c 31 a1 97 39 d0 08 1a 3c cb 46 0b 3c
       0.009038396 0.0002892106 0.009401515 0.008500765
0003d0 7e a0 94 39 1a 41 95 3b 40 54 8b 3c b4 23 83 3c
       0.00028348336 0.00455488 0.017007947 0.016008236
0003e0 ac 3f 3d 3a 3b c1 de 37 bf e9 2e 3a 8a 12 f6 39
       0.00072192657 2.6554442e-05 0.0006672404 0.0004693459
0003f0 39 5a de 37 c0 02 d2 39 10 0a 9c 3a 4b 1a 37 3a
       2.6506475e-05 0.0004005637 0.0011904854 0.0006984814

exp_avg f4 [128]
000000 d9 d2 95 3a 6d 1e 97 3a 46 b6 7d 3b 5d 10 1f bb
       0.0011430635 0.0011529453 0.003871338 -0.0024271228
000010 81 64 fd 3a 6f 37 94 3b 11 b9 76 3b 93 75 b5 38
       0.0019332321 0.0045232098 0.003764693 8.6526525e-05
000020 92 8f e5 3b 58 6b 80 39 59 0d ca 3a 5f 30 dd 3a
       0.0070056403 0.0002449404 0.0015415355 0.0016875378
000030 66 cc 8d 3b 29 79 4f 3b c6 79 d0 3a 9b 97 4e 3a
       0.0043273447 0.003165791 0.0015905432 0.00078808673
000040 7d c1 d8 b9 30 7f 9d ba 31 44 e5 ba 0b 52 e4 39
       -0.0004134289 -0.0012016054 -0.0017491636 0.00043548676
000050 e1 c9 3e 3b c4 c7 98 3b 86 7e bf 3a 38 dc 80 3a
       0.0029112028 0.004662486 0.001460985 0.0009831255
000060 d8 b2 1f 3b 01 18 42 3b 9c 3c 1c 3b a1 b5 23 b9
       0.0024368074 0.0029616358 0.0023839837 -0.00015612553
000070 16 03 52 3b 0a da fe b8 9a cc 9e bb fb 67 53 ba
       0.0032045296 -0.00012152277 -0.0048461678 -0.00080645055
000080 c9 43 6c 3a 07 73 05 3b cb 75 89 39 31 9f 71 3a
       0.00090127863 0.002036275 0.0002621844 0.0009217142
000090 9c 41 31 3a 1c de a4 3b 5c 77 64 3b 17 08 c4 b9
       0.0006761791 0.0050313603 0.0034861183 -0.0003739006
0000a0 04 0e 5b bb 62 2a 8b 3b bf 05 9e 3b 51 85 46 3a
       -0.0033425102 0.004246996 0.0048224623 0.0007572966
0000b0 10 20 10 ba 02 aa b2 3a 5e ff 27 3b de 73 44 3a
       -0.0005497942 0.0013630989 0.0025634388 0.0007494072
0000c0 1f d9 98 ba ba 3f 46 ba 3b 71 c2 39 b8 0b e6 ba
       -0.0011661387 -0.00075625966 0.00037086927 -0.00175511
0000d0 94 1a 25 3b 27 3e 00 3b 7a 4f e2 ba c0 b4 31 bb
       0.0025192844 0.0019568296 -0.0017266118 -0.0027115792
0000e0 69 12 89 3b 7e bb 89 3b 21 51 37 bb cc 50 bb 3a
       0.004183103 0.004203259 -0.002797194 0.0014291047
0000f0 e3 2d 18 3b e7 11 b1 b9 db 9e 07 3a 8a d5 7a 3a
       0.002322071 -0.0003377341 0.00051735126 0.0009568563
000100 b3 c8 3d 3a 00 6d 19 3b ae 73 8b 3b 18 7a c1 39
       0.00072396843 0.0023410916 0.0042557335 0.00036902796
000110 fe e4 73 b9 9d 59 06 3b 83 ac 5a 3b d9 6b fa ba
       -0.00023259592 0.002050019 0.0033366985 -0.0019105627
000120 14 d0 2c 3b 34 64 b0 ba ee b1 b1 bb c4 f2 ab 38
       0.0026369141 -0.0013457597 -0.005422822 8.199134e-05
000130 28 19 9c bb a9 16 40 3a 7e 3a 9d 3b e4 48 32 39
       -0.004763741 0.00073275954 0.0047982326 0.00017002557
000140 7c af 05 bb da e4 c4 3a 62 05 ea 3a 66 9e b1 39
       -0.0020398786 0.0015021816 0.0017854387 0.00033878087
000150 7c 26 04 3b 5e 1f 8f 3b 0b ee 0f 3b fb eb 59 3b
       0.002016454 0.004367753 0.0021961953 0.0033252228
000160 b7 fd 10 bb d6 60 42 3b 0d a0 fb 39 46 18 06 3b
       -0.0022123882 0.002965977 0.00047993698 0.0020461245
000170 53 6e 55 3b 88 bf 50 bb c9 1c f9 ba 81 24 cb 3a
       0.003256698 -0.0031852443 -0.0019005771 0.001549855
000180 1f 45 ab bb 01 f0 88 3b af 45 02 b6 9e 56 0d bb
       -0.0052267457 0.0041790013 -1.941207e-06 -0.002156652
000190 b2 19 af 3b e5 9b 13 3b 27 92 e5 ba 09 e2 b7 3a
       0.0053436393 0.002252334 -0.001751487 0.0014029156
0001a0 e4 b5 65 ba 10 28 21 bb 10 e1 8b 3a 1d 77 0b ba
       -0.00087627606 -0.002459053 0.0010671932 -0.00053201785
0001b0 89 0c 22 3a 57 e6 14 3a fc 36 53 3b cf 2a fa 3a
       0.00061816775 0.0005680075 0.0032228818 0.0019086244
0001c0 10 2d 69 39 28 2a a4 bb 5b b2 06 3a 32 6c 2f bb
       0.00022237399 -0.005009908 0.00051382714 -0.002676737
0001d0 47 8e 23 ba 98 96 86 3a 7f 0a 8f 3a b7 4b 05 ba
       -0.00062391575 0.0010268269 0.0010913162 -0.000508483
0001e0 e1 7a 34 3b 9e be 97 3a e1 5e cb ba cc 06 36 ba
       0.0027539062 0.0011577194 -0.0015515947 -0.0006943762
0001f0 b8 8f a9 3b 00 30 65 bb 8a 9b 44 3a a0 46 74 b9
       0.0051746033 -0.0034971237 0.0007499984 -0.00023295963
