Assets/ML-Agents/Examples/RollerBall/TFModels/results/RollerBall001/RollerBall/RollerBall-62591.onnx (onnx, 74450 bytes, 7 tensors)

network_body._body_endoder.seq_layers.0.weight f4 [128, 8]
0	0x3eb5820b	0.35450777
1	0xbdea853e	-0.11451195
2	0xbe43331c	-0.19062465
3	0xbf01337d	-0.5046919
4	0xbf373156	-0.71559656
5	0x3e24dd8f	0.16100143
6	0xbf23ed2b	-0.64033765
7	0xbe98494d	-0.29743424
8	0x3e41e92c	0.18936604
9	0x3d73faec	0.05956547
10	0x3e00a2d2	0.12562111
11	0xbe372ab0	-0.17887378
12	0x3d3ee81e	0.046608083
13	0xbdcaad3d	-0.09896324
14	0x3f1e0270	0.6172247
15	0xbe856186	-0.26050967
16	0xbd151e10	-0.036405623
17	0xbe907945	-0.2821752
18	0x3ebe22ba	0.3713587
19	0x3d11b927	0.035576966
20	0x3c275209	0.01021243
21	0xbf3a04e9	-0.7266374
22	0xbe366d45	-0.1781512
23	0xbea6374f	-0.32464072
24	0xbdf455af	-0.11930405
25	0x3eb1f715	0.3475882
26	0xbd83ceb5	-0.064359106
27	0x3db5686d	0.08857808
28	0xbf13a1a5	-0.57668525
29	0x3f1393e7	0.57647556
30	0xbdd6e8e3	-0.10493638
31	0xbf06d507	-0.52668804
32	0x3ed988e8	0.42487264
33	0xbd835352	-0.064123765
34	0x3d9e5297	0.077305965
35	0xbe942f05	-0.28942123
36	0xbd225fe7	-0.03964224
37	0x3ef4f0d7	0.47839996
38	0x3dc66cb8	0.09688705
39	0xbf068e15	-0.5256055
40	0x3e0f0e93	0.13970403
41	0x3edf87a0	0.4365816
42	0x3f45cf75	0.7726968
43	0x3e0c6a05	0.13712318
44	0xbcf4259f	-0.029803095
45	0x3eb0dc06	0.34542865
46	0xbeb4d281	-0.35316852
47	0xbe472ac0	-0.19449902
48	0x3e552530	0.20814967
49	0x3f0e6742	0.5562631
50	0xbdf1078c	-0.117690176
51	0xbe9361e9	-0.28785637
52	0x3db3a9a1	0.087725885
53	0x3ef246eb	0.4731973
54	0xbe987c05	-0.2978212
55	0xbdb3432e	-0.08753048
56	0xbebf99aa	-0.37421924
57	0x3e4445c1	0.19167234
58	0x3f3210da	0.69556963
59	0x3c0dfd9c	0.008666422
60	0xbeb06558	-0.3445232
61	0x3f20ef48	0.62865114
62	0x3cad2b88	0.021138921
63	0x3e8a0adb	0.26961407
64	0xbeed5108	-0.46350884
65	0xbd859f5e	-0.065245375
66	0xbdc55838	-0.09635967
67	0xbdc30535	-0.095224775
68	0x3e9446b0	0.2896018
69	0x3e5d7744	0.21627527
70	0x3cd13b2a	0.025540907
71	0xbda0f158	-0.07858533
72	0x3c99a116	0.01875357
73	0x3e7e6232	0.24842146
74	0x3e2f14a7	0.17097722
75	0x3f0ce4db	0.55036706
76	0x3d5e2b20	0.054240346
77	0xbe9fe701	-0.3123093
78	0x3e86672f	0.26250598
79	0xbef90583	-0.48637018
80	0x3d222151	0.039582554
81	0xbf3c6c0f	-0.73602384
82	0xbf4ed52c	-0.80794024
83	0xbed1c5d4	-0.40971243
84	0x3ef8490e	0.48493236
85	0x3f071acc	0.52775264
86	0xbf18fcc9	-0.5976072
87	0x3e1dd84b	0.1541454
88	0x3ec65adc	0.38741195
89	0xbf437839	-0.7635532
90	0xbe4b2374	-0.19837743
91	0x3ecc4872	0.3989902
92	0x3e27ef3a	0.16399851
93	0xbe3e9bb4	-0.18614084
94	0x3e067df9	0.13133992
95	0xbe2fbe7d	-0.1716251
96	0x3f09ece5	0.538771
97	0x3ec71725	0.38884845
98	0xbe08a4c1	-0.13344099
99	0xbda7fc8f	-0.082024686
100	0xbe0d50c7	-0.13800345
101	0x3dcd7fd9	0.10034151
102	0x3e5d88a6	0.21634158
103	0x3e9f9acf	0.31172797
104	0xbe5505b1	-0.20802952
105	0xbe23d3f9	-0.1599883
106	0xbe8896f1	-0.2667766
107	0xbde652b7	-0.11246245
108	0x3ed2b9d4	0.411574
109	0xbedf254f	-0.43583152
110	0xbe90b43d	-0.2826251
111	0x3e9c2129	0.3049405
112	0x3f5a805c	0.8535211
113	0x3ec868e8	0.39142537
114	0x3e015e38	0.12633598
115	0xbe93f4f0	-0.2889781
116	0xbe52467f	-0.20534705
117	0x3eafdc7e	0.3434791
118	0xbebd0b53	-0.36922702
119	0x3f080f70	0.53148556
120	0x3ee83af5	0.4535748
121	0x3e1d1555	0.15340169
122	0xbe0e5d86	-0.13902864
123	0x3c5fbaaf	0.013655349
124	0xbdcc63b4	-0.09979954
125	0x3e4003ee	0.18751499
126	0x3d1dd913	0.038537096
127	0xbc34e036	-0.011039784
128	0x3ea4c723	0.3218318
129	0xbd51e8f8	-0.051247567
130	0xbe84d068	-0.2594025
131	0x3e31e83d	0.17373748
132	0xbe8dbf17	-0.27684852
133	0x3d9f0a12	0.07765593
134	0x3ebb2ac4	0.36556065
135	0x3f0bb877	0.54578346
136	0xbf317a64	-0.6932738
137	0x3e7bc71d	0.24587674
138	0x3dbfa189	0.09356982
139	0x3f8a0242	1.0781939
140	0x3e07e1af	0.13269685
141	0x3f03d5bb	0.51498
142	0x3e5b3263	0.2140594
143	0xbecaeead	-0.3963522
144	0xbe223d51	-0.15843703
145	0x3e990978	0.29890037
146	0x3f630896	0.88684976
147	0xbe47d11f	-0.19513367
148	0x3eac3ba1	0.33639243
149	0xbf24447d	-0.64167005
150	0x3f09b300	0.5378876
151	0x3e938476	0.28811997
152	0x3e629cb6	0.22130093
153	0xbe3da3ce	-0.18519518
154	0x3d913fc3	0.0709224
155	0x3e8ac6fa	0.27104932
156	0x3e0ab176	0.13544258
157	0x3e890ea0	0.2676897
158	0xbea9b548	-0.3314612
159	0xbd110d58	-0.035413116
160	0x3ea2eed1	0.31822827
161	0xbd93565a	-0.07194205
162	0x3d77018c	0.06030421
163	0x3e964a7b	0.293537
164	0x3e364123	0.17798285
165	0xbeb9485b	-0.36188015
166	0xbe934f42	-0.28771406
167	0xbd0e4e33	-0.034742545
168	0x3d88d843	0.06681874
169	0xbe006c27	-0.12541257
170	0xbee7f39f	-0.45303056
171	0x3f330c19	0.69940335
172	0x3ea05278	0.3131292
173	0xbe6cf82f	-0.2314155
174	0xbd3fece0	-0.04685676
175	0xbd5d81c3	-0.05407883
176	0x3d213c27	0.039364006
177	0x3eebe4ec	0.4607309
178	0xbf015c9c	-0.50531936
179	0xbdf0d853	-0.117600106
180	0x3f3a2d0b	0.7272498
181	0x3d5fdaea	0.054652132
182	0xbe927485	-0.28604522
183	0xbf166f28	-0.5876336
184	0x3ee3ca68	0.4449036
185	0x3ca106f8	0.019656643
186	0xbdd3491b	-0.10316678
187	0xbe073c56	-0.1320661
188	0xbd744e4b	-0.05964498
189	0xbf015823	-0.5052511
190	0x3edce8e5	0.43146434
191	0xbe704d5e	-0.23467013
192	0x3e0dec3f	0.13859652
193	0x3d198713	0.037482332
194	0x3f2238ce	0.6336793
195	0x3de76d2e	0.11300121
196	0x3ebcc05c	0.3686551
197	0x3ec9dfc6	0.39428538
198	0xbf663471	-0.8992377
199	0xbf0f9aca	-0.56095564
200	0x3f140439	0.57818943
201	0x3e9ab2e2	0.30214602
202	0x3ebc423b	0.3676928
203	0xbe9f9ee9	-0.31175926
204	0xbe7598b1	-0.23984028
205	0xbecab264	-0.39589226
206	0x3e02a620	0.12758684
207	0xbf13ecf8	-0.5778346
208	0x3f809cac	1.0047812
209	0x3e01acec	0.1266362
210	0x3f1d3d32	0.614215
211	0x3eaa11aa	0.33216602
212	0xbd9ecbe0	-0.0775373
213	0xbf184e89	-0.59494835
214	0xbf26cdcf	-0.6515779
215	0x3e84851b	0.258828
216	0x3da62d09	0.081140585
217	0xbf0b63c5	-0.5444911
218	0x3edd8499	0.43265226
219	0xbe975d4d	-0.2956337
220	0xbda11dd4	-0.078670174
221	0xbdda7bd9	-0.10668153
222	0x3ed1c772	0.40972477
223	0x3f1ebcda	0.62006915
224	0x3e8512ec	0.25991
225	0x3eac3dd9	0.33640936
226	0x3d0e9769	0.034812365
227	0x3e9da09f	0.30786607
228	0xbe084a84	-0.13309675
229	0xbd944436	-0.07239573
230	0x3ebd8439	0.3701494
231	0xbe16134b	-0.14655797
232	0xbee78cab	-0.4522451
233	0xbf021efa	-0.50828516
234	0x3ed3a19f	0.41334245
235	0x3e22b909	0.15890898
236	0xbdec4800	-0.115371704
237	0x3d30774f	0.04308253
238	0xbdd1de7b	-0.10247513
239	0x3db781bc	0.08960292
240	0xbf146a67	-0.5797486
241	0x3e822f62	0.25426775
242	0xbdd1cc3c	-0.10244033
243	0xbea0387b	-0.3129309
244	0xbebd70f5	-0.37000242
245	0xbde0d855	-0.10978762
246	0x3c71e5ea	0.014764288
247	0xbf29b1a1	-0.66286665
248	0xbdc3c7db	-0.09559604
249	0xbb2999ec	-0.0025879098
250	0x3d325795	0.043540556
251	0xbc3de074	-0.011589158
252	0xbf1a7436	-0.60333574
253	0x3e8e21ab	0.27760062
254	0xbdae5d06	-0.085138366
255	0x3f0089cd	0.5021027

network_body._body_endoder.seq_layers.0.bias f4 [128]
0	0xbcc83aae	-0.024442043
1	0xbbbe0ae2	-0.005799637
2	0x3c949311	0.018136533
3	0x3c88b407	0.016687406
4	0x3ae2316b	0.0017257159
5	0x3cfb1fe0	0.030654848
6	0x3cea6e47	0.028617037
7	0xbc497313	-0.012295502
8	0xbd3c536a	-0.045977987
9	0x3ccc0922	0.024906699
10	0x3cc04048	0.023468152
11	0xbd5136fe	-0.051077835
12	0x3d0c1ae4	0.034205332
13	0x3cd4ef20	0.02599293
14	0x3d9d746a	0.0768822
15	0x3c411975	0.011785855
16	0xbc832e40	-0.016013265
17	0x3cad9a3c	0.021191709
18	0xbcb0de9a	-0.02159052
19	0x3d45f0ff	0.048325535
20	0x3a369ccc	0.00069661136
21	0xbd15456e	-0.036443166
22	0x3c33ad5c	0.010966625
23	0x3d02d7df	0.031944152
24	0x3d5f35e4	0.054494753
25	0x3d12e7ce	0.035865597
26	0x3d327b22	0.04357446
27	0xbd4aa946	-0.049477838
28	0x3c46e109	0.0121386135
29	0xbd97dde8	-0.07415372
30	0xbd1d9f00	-0.038481712
31	0x3c00745e	0.007840244
32	0x3d2177d6	0.039420925
33	0x3c7dea02	0.015497686
34	0xbdd154da	-0.10221262
35	0x3ad94c6e	0.0016578564
36	0x3d4298d1	0.04750902
37	0xbb161d4a	-0.0022905641
38	0xbd3a8be4	-0.045543566
39	0xbb66e14a	-0.0035229498
40	0x3d76599e	0.06014406
41	0x3d4f9dfc	0.050687775
42	0x3c40da21	0.011770756
43	0xbca43cd7	-0.020048542
44	0x3bf02bea	0.0073294537
45	0x3d8f813f	0.070070736
46	0xbd9b79b2	-0.07591571
47	0x3d5e3ca0	0.054257035
48	0x3d1d6925	0.03843035
49	0x3bc1088f	0.005890913
50	0x3c9d36b8	0.019191131
51	0xbcf64571	-0.03006241
52	0x3d156b8f	0.03647953
53	0xbd197180	-0.037461758
54	0x3bc088c2	0.005875678
55	0x3cb4873c	0.022037141
56	0x3c3b808c	0.011444222
57	0x3c67424a	0.014114926
58	0x3cb91d24	0.022596903
59	0xbc4711df	-0.012150257
60	0xbb627ab2	-0.0034557995
61	0xbceeacf1	-0.0291352
62	0x3cf6687e	0.030079123
63	0x3d8dea00	0.069293976
64	0x3bb96616	0.0056579215
65	0xbcc0bbe5	-0.023527095
66	0xb99496e0	-0.0002834117
67	0xbcdcde26	-0.026961397
68	0xbd35a571	-0.04434723
69	0xbd20dfcd	-0.039275933
70	0xbd2aafd4	-0.04167159
71	0xbd64a08f	-0.055817183
72	0xbb4bc175	-0.0031090651
73	0xbca75506	-0.020426285
74	0xbb9146fc	-0.004433511
75	0xbcd98a9a	-0.026555348
76	0xbbf08f93	-0.007341334
77	0x3d270161	0.0407728
78	0xbc948e49	-0.018134253
79	0x3b0e7783	0.0021738715
80	0x3c9953b8	0.018716678
81	0x3c38df3e	0.011283694
82	0x3d9aa2c4	0.07550576
83	0xbc98b8db	-0.018642833
84	0x3d076caa	0.033062615
85	0x3d0f0d06	0.03492453
86	0x3c59856c	0.013276439
87	0x3cfc34b0	0.030786842
88	0x3ab62cd7	0.0013898861
89	0xbcda8d7b	-0.026678791
90	0xbce4796b	-0.027889928
91	0xbd17e195	-0.037080366
92	0xbcaf28ca	-0.021381754
93	0x3b7e2fb8	0.0038785767
94	0xbc2ba13f	-0.010475456
95	0x3c11d6c7	0.008901305
96	0xbc929097	-0.017891211
97	0x3d300a0d	0.042978335
98	0xbc10f73a	-0.008848006
99	0xbab122e4	-0.0013514427
100	0xbc4e7214	-0.0126004405
101	0x3cbe086a	0.023197372
102	0xbcc14fc6	-0.02359761
103	0x3ca516df	0.020152507
104	0x3c6c1a17	0.014410517
105	0xbd8d93a6	-0.06912927
106	0x3d263f05	0.040587444
107	0x3d347159	0.04405341
108	0x3cc7a912	0.024372611
109	0x3c3890b6	0.0112649705
110	0xbd7647fb	-0.06012724
111	0x3c37f983	0.011228922
112	0x3c47b25f	0.012188523
113	0xbcc1710e	-0.023613479
114	0x3d9a0064	0.07519606
115	0x3d065e00	0.03280449
116	0x3ca4bdfc	0.020110123
117	0x398c8c66	0.00026807486
118	0x3ac996c5	0.0015380016
119	0x3c817e0c	0.015807174
120	0x3be90149	0.007110749
121	0x3c4c6e71	0.012477503
122	0xbd9b3d05	-0.07579998
123	0x3d8e247e	0.06940554
124	0xbd8c040f	-0.068367116
125	0xbd283455	-0.041065533
126	0x3d1b2e99	0.037886236
127	0xbcc84298	-0.024445817

network_body._body_endoder.seq_layers.2.weight f4 [128, 128]
0	0xbc24b86c	-0.010053735
1	0xbc21e5bd	-0.009881434
2	0xbd121247	-0.035661962
3	0x3cbdab3c	0.02315294
4	0x3e04a4fb	0.1295356
5	0x3d67ad05	0.05656149
6	0x3db9231d	0.090399005
7	0xbdad3336	-0.08457033
8	0x3c1f7d30	0.009734437
9	0xbc37c802	-0.011217119
10	0xbe197ff3	-0.14990215
11	0x3cc8d5f3	0.024516081
12	0xbd199458	-0.037494987
13	0xbe431085	-0.1904927
14	0xbd821c07	-0.06353002
15	0x3cacd1a2	0.021096054
16	0xbdab7c27	-0.083732896
17	0xbde12a91	-0.10994447
18	0x3e103978	0.14084423
19	0xbdba8585	-0.09107498
20	0xbd630d08	-0.05543235
21	0x3bcd42f2	0.006264084
22	0x3e255405	0.16145332
23	0xbdb43db6	-0.08800833
24	0x3e041947	0.12900268
25	0x3e07cedd	0.13262506
26	0xbdf5e4c1	-0.12006522
27	0x3e08f378	0.13374126
28	0x3dc91520	0.098184824
29	0x3e113abd	0.14182563
30	0xbcc52669	-0.024066167
31	0x3dd59c72	0.1043023
32	0xbd643cc9	-0.05572203
33	0xbd5c286d	-0.05374949
34	0x3d0a88ad	0.03382175
35	0xbda99354	-0.08280054
36	0xbd234566	-0.039861105
37	0xbdcd8eba	-0.100369886
38	0x3dbd19a3	0.092334054
39	0x3da95620	0.0826838
40	0x3d40012f	0.04687613
41	0xbe136b53	-0.1439641
42	0xbe4b4500	-0.1985054
43	0xbe57ee19	-0.21086921
44	0x3e5d659d	0.21620794
45	0x3d0a2465	0.033726115
46	0x3be24a19	0.006905806
47	0xbd3f0d27	-0.046643402
48	0xbddfc480	-0.10926151
49	0x3da4d383	0.08048155
50	0x3d546a7c	0.051859364
51	0xbe1fb1e4	-0.15595204
52	0xbd7798ff	-0.060448643
53	0x3bb1f545	0.0054308497
54	0x3da7a0c5	0.08184961
55	0xbd8d5e8b	-0.06902798
56	0x3d1fecab	0.039044064
57	0x3e0ae4e7	0.13563882
58	0xbdaabc82	-0.08336736
59	0xbce8ec14	-0.028432883
60	0x3d9ecb61	0.07753635
61	0x3cea7857	0.028621836
62	0xbd292475	-0.041294534
63	0xbdbdfbf3	-0.09276571
64	0xbcfa2321	-0.030534329
65	0xbd9002f4	-0.07031813
66	0x3de03271	0.10947121
67	0x3c076ce4	0.008265708
68	0xbdda3c92	-0.10656084
69	0xbe2c29b7	-0.16812788
70	0x3b504575	0.003177968
71	0xbc4a5138	-0.012348466
72	0x3d3bce0b	0.045850795
73	0x3dc18b63	0.09450414
74	0xbd788898	-0.06067714
75	0x3cbfbf06	0.023406517
76	0x3cfe3b71	0.031034203
77	0xbe8c07a6	-0.27349585
78	0x3e197065	0.14984281
79	0x3c9a3999	0.018826293
80	0xbccb6ab6	-0.024831157
81	0xbe0523db	-0.13001959
82	0x3bec39b7	0.0072090286
83	0xbe4fdcb7	-0.2029904
84	0x3b649b64	0.003488266
85	0x3b9d5050	0.0048008338
86	0xbc3f571f	-0.011678486
87	0xbd6dd9b6	-0.058068953
88	0x3b4ef455	0.0031578739
89	0x3d1b820e	0.037965827
90	0xbaeddaf8	-0.0018146923
91	0xbd204fa6	-0.03913846
92	0x3c0bcaa8	0.008532204
93	0xbe045182	-0.12921718
94	0x3d807451	0.062721856
95	0xbd5cc246	-0.05389621
96	0xbe156129	-0.14587845
97	0xbdde9a50	-0.108692765
98	0xbdfd24ad	-0.12360511
99	0xbe031863	-0.12802272
100	0x3d4d5241	0.05012727
101	0xbe7630af	-0.24042009
102	0xbc171a9b	-0.009222652
103	0xbe8ced36	-0.27524728
104	0x3df22a30	0.11824453
105	0xbea11a5b	-0.3146542
106	0xbdc68aec	-0.09694466
107	0xbed0660f	-0.40702865
108	0xbb6bcb90	-0.0035979487
109	0xbd20485e	-0.039131515
110	0x3cc1b72a	0.02364691
111	0xbdaa045d	-0.083016135
112	0x3ce68bdb	0.02814286
113	0xbe62e20b	-0.22156541
114	0xbc9b5f18	-0.018966243
115	0xbb4dfca9	-0.0031431115
116	0x3e42cc7f	0.19023322
117	0xbda374b5	-0.079812445
118	0xbcbbd07a	-0.022926558
119	0xbe5e46a1	-0.2170663
120	0xbe16f317	-0.14741169
121	0xbb0eb334	-0.0021774294
122	0xbd6d492b	-0.057931107
123	0x3d743e45	0.059629697
124	0x3ca533c9	0.020166295
125	0xbe2eeca2	-0.17082456
126	0xbe170ad6	-0.14750227
127	0x3dab776c	0.08372387
128	0xbd513d3b	-0.051083785
129	0xbde89cb6	-0.11358015
130	0x3d65658c	0.056005046
131	0x3d9c16ad	0.076215126
132	0xbdfe8654	-0.12427965
133	0xbce9061c	-0.028445296
134	0xbddbe5b4	-0.10737172
135	0xbc753301	-0.014965774
136	0x3d945935	0.072435774
137	0x3d395a23	0.045251977
138	0x3dcbb749	0.09947068
139	0x3e07d4ed	0.13264818
140	0xbced1b43	-0.028943663
141	0x3a1b3c59	0.0005921773
142	0x3d897e40	0.067135334
143	0xbd8d017e	-0.0688505
144	0x3df9db78	0.122000635
145	0x3d6d3e82	0.05792094
146	0x3ca46e19	0.02007203
147	0xbb8ae076	-0.0042381836
148	0xbdc2ce17	-0.09511965
149	0x3d51a061	0.05117834
150	0x3c68cda4	0.014209185
151	0x3e391672	0.18074968
152	0xbca5ff42	-0.020263318
153	0x3db6d391	0.08927072
154	0x3d14e4b9	0.03635094
155	0x3dbc3852	0.0919043
156	0x3d366294	0.044527605
157	0x3d941bf4	0.07231894
158	0xbd4bfc8f	-0.049801406
159	0xbd917fc9	-0.07104451
160	0x3c9daf45	0.019248614
161	0xbde67581	-0.11252881
162	0x3d689897	0.056786146
163	0x3dce1375	0.10062305
164	0xbc8b01c8	-0.016968623
165	0x3d8dcb5d	0.06923554
166	0x3d05f0d1	0.032700364
167	0x3ceb4c15	0.028722802
168	0xbd84c819	-0.06483478
169	0x3c80a6fc	0.015704624
170	0x3dda75d3	0.106670044
171	0x3cbdd168	0.023171142
172	0x3e161c3a	0.14659205
173	0xbc2f139f	-0.01068583
174	0x3d8f5472	0.069985285
175	0x3ccb5eec	0.024825536
176	0xbd4cea9a	-0.05002842
177	0x3dc2004d	0.094727136
178	0x3e25a0d2	0.1617463
179	0xbca64881	-0.020298244
180	0x3cbcfa30	0.023068517
181	0x3d0e2bbe	0.034709685
182	0x3d8bf972	0.06834687
183	0xbd48269f	-0.048864957
184	0xbdad8964	-0.08473471
185	0x3d75469a	0.059881784
186	0x3e4a8e66	0.19780883
187	0x3c6babbc	0.014384206
188	0xbded2319	-0.1157896
189	0x3ca941fe	0.02066135
190	0x3ddd5d79	0.10808844
191	0xbe0b809f	-0.13623284
192	0x3d95d271	0.07315529
193	0xbd04a7a6	-0.032386445
194	0xbe4394d6	-0.19099745
195	0xbe6119f9	-0.21982564
196	0xbd0d130c	-0.034441993
197	0x3cada583	0.021197086
198	0xbe0528c2	-0.13003829
199	0xbca9ca2e	-0.02072629
200	0xbe410978	-0.18851268
201	0xbbd64efb	-0.006540177
202	0xbb89ec24	-0.0042090584
203	0xbc6a63bc	-0.014306005
204	0xbcac4bf7	-0.021032317
205	0x3de7165f	0.11283564
206	0x3dd5b0a7	0.104340844
207	0xbd870ee9	-0.06594641
208	0xbe4a670d	-0.19765873
209	0xbd0b35e2	-0.033986934
210	0xbd7b0e88	-0.061293155
211	0x3dd3ca46	0.10341315
212	0xbdba7fdf	-0.09106421
213	0x3c222f6b	0.009899001
214	0xbd51e42a	-0.051242985
215	0xbd9bf7b2	-0.076156035
216	0x3d6669ab	0.056253117
217	0xbdad94b8	-0.084756315
218	0x3e3954d7	0.1809877
219	0x3d2caf49	0.042159352
220	0xbde402a1	-0.11133314
221	0xbe45f48d	-0.1933157
222	0xbd9a2402	-0.07526399
223	0x3d267f43	0.04064871
224	0x39fce348	0.00048234523
225	0xbc347797	-0.011014841
226	0x3ddfd26b	0.10928806
227	0x3d555318	0.052081198
228	0x3c1738b7	0.0092298305
229	0x3dd4ed3c	0.10396811
230	0xbd42a4ea	-0.047520556
231	0x3e006fc3	0.12542634
232	0x3db52ac9	0.08846051
233	0xbe1b96a6	-0.15194187
234	0xbc59e547	-0.013299293
235	0x3e8902a3	0.26759824
236	0x3e05b949	0.13058962
237	0x3dbe3d6a	0.092890576
238	0x3d9ace48	0.07558876
239	0x3caf3d12	0.021391425
240	0x3e0695b2	0.13143042
241	0x3d1ca45c	0.038242683
242	0xbdd7c14d	-0.10534916
243	0x3e0fd310	0.14045358
244	0xbd3f457c	-0.046697125
245	0x3dd48ea4	0.10378769
246	0x3dd5b051	0.1043402
247	0x3dc8f6a4	0.09812668
248	0x3d98c0db	0.07458659
249	0x3cc75a27	0.02433498
250	0x3cb7090f	0.022343187
251	0xbe384eef	-0.17998861
252	0xbe0e12f4	-0.13874418
253	0x3d5f741f	0.0545541
254	0xbda55787	-0.08073335
255	0xbc9ded00	-0.01927805

network_body._body_endoder.seq_layers.2.bias f4 [128]
0	0x3d13e94e	0.03611117
1	0x3ab04abc	0.0013450007
2	0x3da0f76f	0.07859694
3	0xbcddab97	-0.02705936
4	0x3d0de691	0.034643713
5	0x3ca96369	0.020677285
6	0x3c217681	0.009854914
7	0x3d44f590	0.04808575
8	0x3c9508b2	0.018192623
9	0xbaec528f	-0.0018029975
10	0x3cd1fe76	0.025634032
11	0x3be5014a	0.006988679
12	0x3d3ff093	0.04686029
13	0xbceaa435	-0.028642753
14	0x3d0a62a3	0.033785474
15	0x3d5b0d76	0.053479634
16	0xbcca7207	-0.024712576
17	0x3c5adb31	0.013357923
18	0xbc4dc4b2	-0.012559103
19	0xbd150ac1	-0.03638721
20	0x3bd2ce6a	0.006433298
21	0xbb37f491	-0.0028069357
22	0x3d2680d7	0.040650215
23	0x3d2c8eaa	0.042128243
24	0x3d08d24a	0.033403672
25	0xbcd612a9	-0.026131945
26	0x3b9c0c39	0.0047621992
27	0x3c8637d5	0.016384045
28	0x3d3c26aa	0.04593531
29	0x3cb70aba	0.022343982
30	0xbcaea14f	-0.021317152
31	0x3d401c55	0.04690202
32	0x3d61da92	0.055140086
33	0xbd278f7e	-0.04090833
34	0x3b256e8f	0.00252429
35	0xbc197140	-0.00936538
36	0xbc901f94	-0.017593183
37	0x3d3b059d	0.04565965
38	0x3cb07882	0.021541838
39	0xbbac16a9	-0.0052517247
40	0x3c8e9c54	0.017408527
41	0x3d245042	0.040115602
42	0x3d4c6c63	0.049908053
43	0x3c0dd712	0.008657234
44	0x3c817687	0.015803589
45	0x3c1a49aa	0.009416977
46	0x398c2927	0.00026733542
47	0x3c4540ef	0.012039407
48	0xbc62e870	-0.013849363
49	0xbbeebcdd	-0.007285698
50	0x3d2e4325	0.042544503
51	0x3cc6e222	0.02427775
52	0x3d93fa55	0.072254814
53	0x3d8eeef4	0.069791704
54	0x3c03f5b2	0.008054184
55	0x3c3a82ab	0.011383693
56	0x3c722bdb	0.014780964
57	0x3cba0b08	0.022710338
58	0x3ceb0e6c	0.0286934
59	0xbc86ee51	-0.01647106
60	0xbb0701a2	-0.0020600338
61	0x3bc384c2	0.0059667537
62	0x3c1e8d4d	0.009677243
63	0xbd01e485	-0.031712074
64	0xbc9beab1	-0.019032808
65	0xbbf9c32d	-0.0076221437
66	0xbc66b37b	-0.014080877
67	0x3ba1345e	0.0049195727
68	0xbbd6a017	-0.006549846
69	0x3cdd0984	0.026982076
70	0xbd3c0374	-0.04590173
71	0xbc00020c	-0.007812988
72	0xbb108810	-0.0022053756
73	0xbc32d712	-0.010915535
74	0x3ca241c0	0.019806743
75	0x3d051735	0.032492835
76	0x3cab738d	0.020929122
77	0x3d716167	0.05893078
78	0xbc67cd5f	-0.014148085
79	0x3c393edb	0.01130649
80	0x3c978118	0.018494174
81	0x3d8c991c	0.06865141
82	0x3c9ec9a5	0.019383261
83	0x3d1aada2	0.037763245
84	0x3b3c4fe6	0.0028734147
85	0xbc544484	-0.0129557885
86	0xbc89d96d	-0.01682731
87	0x3d1fb5d7	0.038991775
88	0xbcbb0468	-0.02282925
89	0xbc711e7e	-0.014716743
90	0x3d44d5dd	0.04805552
91	0xbc0fab3d	-0.008768854
92	0xbc56fc96	-0.013121745
93	0x3ca09f4b	0.019607207
94	0x3a5929dc	0.00082841306
95	0x3ce7d966	0.028301906
96	0x3d54cb87	0.05195191
97	0x3bc4cec1	0.0060060923
98	0x3c99cb52	0.018773708
99	0x3d20e358	0.039279312
100	0x3cbed919	0.02329688
101	0x3d82388c	0.06358442
102	0xbc8ea164	-0.017410941
103	0x3d569381	0.052386764
104	0x3c8df142	0.017326955
105	0x3d15b4d7	0.036549415
106	0x3c67c1c2	0.014145317
107	0x3b4e8c7c	0.003151684
108	0xbcf138e0	-0.029446065
109	0x3c973868	0.018459514
110	0x3c78321b	0.015148665
111	0x3d21923b	0.039446097
112	0xbb0582e4	-0.0020372206
113	0x3c88801f	0.016662655
114	0x3d455540	0.048177004
115	0x3cb212f1	0.021737548
116	0x3d753b6b	0.05987112
117	0xbd08fec7	-0.0334461
118	0x3cd1b10d	0.02559712
119	0x3b771f55	0.0037707884
120	0xbbacb720	-0.0052708536
121	0x3d55cb3f	0.052195784
122	0x3d611d60	0.054959655
123	0x3ce368da	0.027759958
124	0x3c277ad9	0.01022216
125	0x3c960728	0.01831396
126	0x3d6dd81e	0.058067434
127	0xbcc74cfb	-0.0243287

action_model._continuous_distribution.log_sigma f4 [1, 2]
0	0xbe1193b6	-0.14216504
1	0xbdcf02c2	-0.10107948

action_model._continuous_distribution.mu.weight f4 [2, 128]
0	0x3dc8cf94	0.098052174
1	0xbda30fbc	-0.079619855
2	0x3daec4cb	0.08533629
3	0x3b818b82	0.003953398
4	0x3cd1ab40	0.025594354
5	0x3d82b76b	0.063826405
6	0x3d1e68ff	0.03867435
7	0x3c9e3c9c	0.01931601
8	0xbd2d0278	-0.042238683
9	0xbc80a5f5	-0.015704134
10	0xbd243c12	-0.04009635
11	0xbb6cd97c	-0.0036140373
12	0x3d77e972	0.060525365
13	0xbcd06639	-0.025439369
14	0x3d6e249c	0.058140382
15	0x3de75978	0.11296362
16	0x3cb813dd	0.022470409
17	0x3d184229	0.03717247
18	0xbb0e2229	-0.0021687842
19	0xbd20816e	-0.039185934
20	0xbc5a2078	-0.013313405
21	0x3cb5cc58	0.022192165
22	0xbbceac1d	-0.0063071386
23	0x3bf7de8a	0.0075643705
24	0xbde8f285	-0.11374382
25	0xbd12f09f	-0.035874005
26	0xbba79c48	-0.0051150657
27	0xbd086923	-0.03330339
28	0xbc54f3c2	-0.0129975695
29	0xbe059c7a	-0.13047972
30	0x3c9abbc4	0.018888362
31	0xbdbe3488	-0.09287363
32	0x3bb370c6	0.00547609
33	0x3bc49438	0.0059991144
34	0xbcba992d	-0.022778118
35	0xbd514fc9	-0.05110148
36	0xbd19a630	-0.037512004
37	0x3b61b7be	0.0034441794
38	0x3cb86eaf	0.022513716
39	0xbb09b0be	-0.0021009888
40	0x3d7620fe	0.060090058
41	0xbd2688a8	-0.04065767
42	0xbd3f59f1	-0.046716634
43	0xbd83daa3	-0.06438186
44	0xbd2fdd18	-0.04293546
45	0xbc9832bf	-0.018578885
46	0xbca42f58	-0.020042107
47	0x3d97139e	0.073767886
48	0xbd29126b	-0.04127733
49	0xba1d42f9	-0.00059990544
50	0xbd992263	-0.07477262
51	0x3a7b155c	0.0009578073
52	0x3d66eb06	0.05637648
53	0x3d2f307a	0.04277084
54	0x3afe10ea	0.0019383703
55	0xbbe0c716	-0.0068596704
56	0x3d228689	0.039679084
57	0x3d03e509	0.032200847
58	0xbc393601	-0.011304379
59	0x3b35812b	0.0027695398
60	0xbd8193df	-0.06327032
61	0xbd1fdd52	-0.039029427
62	0x3d60f583	0.05492164
63	0x3d2135e5	0.03935804
64	0x3c367abc	0.011137661
65	0x3d50e357	0.05099806
66	0xbcc91516	-0.024546187
67	0xbc5e3992	-0.0135635305
68	0xbbdf9a06	-0.006823781
69	0xbc6ef596	-0.014584919
70	0x3c6e9457	0.014561734
71	0xbcb62cef	-0.022238223
72	0xbd837ebe	-0.064206585
73	0x3d39ae13	0.045332026
74	0x3c83e65a	0.016101051
75	0x3d37c988	0.04486993
76	0xbd3601c0	-0.044435263
77	0x3c1d357a	0.009595269
78	0x3c62cd3d	0.013842878
79	0xbd17d2e9	-0.037066374
80	0x3bf20ebc	0.0073870104
81	0x3ddb1ab0	0.106984496
82	0x3d1d3dc7	0.038388994
83	0xbda4dda0	-0.08050084
84	0x3cc15731	0.023601146
85	0x3ca15434	0.019693471
86	0x39a39b40	0.00031205453
87	0x3cef4c3d	0.029211158
88	0xbd660aff	-0.05616283
89	0x3cc7343b	0.024316898
90	0x3d8131a7	0.063082986
91	0x3cf27dc7	0.029600991
92	0x3d092c1e	0.03348934
93	0xbd5658e5	-0.05233087
94	0xbd4c81e8	-0.049928576
95	0x3d88b121	0.0667441
96	0x3d01ebfd	0.031719197
97	0xbd15c1e0	-0.036561847
98	0x3d1bf463	0.038074862
99	0xbd94e5f7	-0.07270425
100	0xbddb40c1	-0.1070571
101	0x3dd15dae	0.10222946
102	0x3cb0e34c	0.021592759
103	0xbbbb2598	-0.0057112686
104	0xbd624b62	-0.055247672
105	0xbdd4c9f2	-0.103900805
106	0x3c9718ef	0.018444506
107	0x3d3fa621	0.046789292
108	0xbc9b74ab	-0.01897653
109	0xbda8145a	-0.08207007
110	0xbbbb068d	-0.005707568
111	0xbd2a7a4f	-0.04162055
112	0xbd6963c5	-0.056979913
113	0xbc92dfe0	-0.017929018
114	0xbc88f4c7	-0.016718281
115	0xbd25f2dd	-0.040514816
116	0x3dc3fe43	0.09569981
117	0x3c13464e	0.00898893
118	0xbd0c96fe	-0.034323685
119	0x3d455d23	0.048184525
120	0xbd894245	-0.06702093
121	0x3cab7322	0.020928923
122	0x3d9d7246	0.076878116
123	0xbcba8eae	-0.022773113
124	0x3d1292ae	0.035784416
125	0xbd846ea7	-0.06466418
126	0x3d636320	0.055514455
127	0x3d28ee2c	0.041242763
128	0xbc3ed49e	-0.011647372
129	0x3c572a58	0.013132654
130	0xbd093f97	-0.03350791
131	0xbd40465a	-0.046942092
132	0x3d99756e	0.07493101
133	0x3d04247b	0.032261353
134	0xbc435b87	-0.011923677
135	0xbd979142	-0.074007526
136	0x3d7ad163	0.061234843
137	0xbd0268a6	-0.03183808
138	0x3cda7e7a	0.026671637
139	0xbd4f079a	-0.05054436
140	0xbd8d6443	-0.06903889
141	0x3cc98447	0.024599208
142	0x3d11b322	0.035571225
143	0x3d0f7e5f	0.035032626
144	0x3a8083d1	0.0009804909
145	0xbbbfe267	-0.0058558467
146	0xbcd80394	-0.026368894
147	0x3a0ef89a	0.00054539146
148	0x3d32000e	0.043457083
149	0xbcabbb5d	-0.020963365
150	0xbda6eea7	-0.08150988
151	0xbdab2610	-0.08356869
152	0x3d2b0085	0.041748542
153	0xbc04baec	-0.008101206
154	0x3d2eda63	0.04268874
155	0xbcd2c897	-0.025730414
156	0x3d3cdf41	0.04611135
157	0x3c4d8c60	0.012545675
158	0x3d009197	0.031388845
159	0x3d17c547	0.037053373
160	0xbda604d2	-0.08106388
161	0x3bb1307c	0.005407391
162	0xbce08033	-0.02740488
163	0xbbde25d4	-0.006779412
164	0x3b790121	0.0037995058
165	0xbd6c9a91	-0.057764594
166	0xbce5e1eb	-0.028061828
167	0xbc2ade89	-0.010429033
168	0x3d5176fd	0.051138867
169	0xbd5d4b00	-0.054026604
170	0xbda9831e	-0.08276962
171	0x3d5d08f1	0.053963605
172	0xbcf610a0	-0.030037224
173	0xbd014406	-0.031559013
174	0xbced002f	-0.028930752
175	0xbc9cbf0d	-0.019134069
176	0x3c511e39	0.012763553
177	0x3d2cfee5	0.042235274
178	0xbd2888de	-0.04114615
179	0xbd28c341	-0.041201834
180	0xbd059595	-0.032613356
181	0xbdc06acd	-0.09395371
182	0xbd412e30	-0.04716319
183	0x3d182b90	0.03715092
184	0x3cfdfb20	0.031003535
185	0x3d317af0	0.043330133
186	0xbd085e73	-0.0332932
187	0x3d1ae6be	0.03781771
188	0x3b85cc5c	0.0040831994
189	0xbc360490	-0.011109486
190	0x3b39b470	0.002833631
191	0x3cbdafd1	0.023155125
192	0xbabac486	-0.0014249242
193	0x3b7f5429	0.0038960075
194	0x3d1d2f21	0.038375024
195	0xbd18823d	-0.03723358
196	0xbcf18cd8	-0.029486105
197	0xbda44646	-0.08021216
198	0x3bea6020	0.0071525723
199	0x3d685282	0.05671931
200	0xbaac7fba	-0.0013160624
201	0x3cf43ce6	0.029814195
202	0xbd19908b	-0.037491363
203	0xbcd1cb4f	-0.02560964
204	0xbb69f2f6	-0.0035697795
205	0xbdd3752e	-0.103250846
206	0x3ba34339	0.004982379
207	0xbd23e6a7	-0.04001489
208	0xbd5f1c79	-0.054470513
209	0xbd189583	-0.03725196
210	0x3d4fa223	0.050691735
211	0x3c128c5e	0.008944599
212	0x3bd3d06b	0.0064640543
213	0xbd181528	-0.03712955
214	0x3d21ba15	0.039484102
215	0x3d6ccf8a	0.057815112
216	0x3c6f81c8	0.014618345
217	0x3ab2f3a2	0.001365293
218	0xbd9a1250	-0.07523024
219	0x3c56a4cc	0.013100814
220	0x3c6747a7	0.014116204
221	0x3d2bffc3	0.04199196
222	0x3d0cf2de	0.034411304
223	0x3cfadce9	0.030622916
224	0x3d99e26d	0.075138904
225	0xbd033fa8	-0.03204313
226	0xbcf9d147	-0.030495299
227	0x3c9a2793	0.018817699
228	0x3d2528ea	0.04032222
229	0xbdbc0f52	-0.091826096
230	0xbc015ec0	-0.007896125
231	0xbd8c7539	-0.06858296
232	0x3d688ab4	0.056772903
233	0x3ca68846	0.020328652
234	0x3d3e4b40	0.046458483
235	0x3d5e9b7c	0.0543475
236	0x3cb2d2a7	0.021828962
237	0xbd331515	-0.043721277
238	0xbd522bf3	-0.051311444
239	0xbd66cfc6	-0.056350492
240	0xbc883a31	-0.01662931
241	0x3d85b6d9	0.06529016
242	0xbd88d9d3	-0.06682172
243	0xbd547cea	-0.05187694
244	0xbd0d0250	-0.034426033
245	0x3cba981e	0.022777613
246	0xbd34306b	-0.043991487
247	0xbc8228fc	-0.015888683
248	0x3d246cc9	0.040142808
249	0xbd954088	-0.07287699
250	0x3c887a06	0.016659748
251	0xbdb75ecf	-0.0895363
252	0xbc8a2295	-0.016862193
253	0x3b3de31c	0.002897448
254	0x3d091a67	0.033472445
255	0x3c4950df	0.012287348

action_model._continuous_distribution.mu.bias f4 [2]
0	0x3bab6c63	0.0052314266
1	0xbc2c848c	-0.0105296485
